DNN/model.pth (torch, 150378 bytes, 20 tensors)

w1 f4 [42, 64]
0	0x3db37afa	0.0876369
1	0x3e84699b	0.2586182
2	0x3e3e504b	0.18585317
3	0x3c78fbf4	0.015196789
4	0xbe894f92	-0.2681852
5	0x3eab24bd	0.33426467
6	0x3e8249b4	0.25446856
7	0x3cad65a1	0.021166625
8	0x3e87ae22	0.2650004
9	0x3dd1dee1	0.10247589
10	0xbe79f6ef	-0.24410604
11	0xbd6d0fae	-0.05787628
12	0x3e7b38a9	0.24533333
13	0xbd3b59c7	-0.045739915
14	0x3e03dd65	0.12877424
15	0xbde7cfea	-0.11318953
16	0x3d7237c5	0.059135217
17	0xbed680e3	-0.41895208
18	0xbdc9e2fa	-0.098577455
19	0xbe2f3ab5	-0.17112239
20	0x3e8c8ec2	0.27452666
21	0xbe2812a5	-0.16413362
22	0xbc3257b0	-0.010885164
23	0x3dabd5e0	0.08390403
24	0x3dda0cfa	0.10647006
25	0xbe371cb5	-0.17882045
26	0x3da51606	0.08060841
27	0x3ebca9b1	0.36848214
28	0xbdcd3b0b	-0.10021027
29	0x3dd574c6	0.104226634
30	0xbeb565cb	-0.35429224
31	0x3edb41f1	0.42823747
32	0xbd5a1fa6	-0.05325284
33	0x3d9aa58e	0.07551108
34	0x3e4cd08a	0.20001426
35	0xbde3df1e	-0.111265406
36	0x3ec438b0	0.383245
37	0x3ee8c7df	0.4546499
38	0xbe68d817	-0.22738682
39	0x3df04e3b	0.11733671
40	0x3ef7cd8f	0.48399016
41	0xbe25e942	-0.16202262
42	0xbec35e3b	-0.3815783
43	0xbc92d58f	-0.017924098
44	0x3dbb8804	0.09156802
45	0xbd29d37b	-0.04146145
46	0xbc54f436	-0.012997678
47	0x3e411188	0.18854344
48	0x3e78caf8	0.24296176
49	0xbe9b41e9	-0.30323723
50	0xbeac8474	-0.33694804
51	0xbda39455	-0.079872765
52	0x3f1bba2f	0.6083097
53	0xbe62f2db	-0.22162955
54	0xbeb1b677	-0.34709522
55	0xbed17010	-0.4090581
56	0x3e53a71f	0.2066922
57	0x3d7f2e77	0.06230017
58	0x3e8e27a0	0.27764606
59	0xbd974234	-0.07385674
60	0x3e149ce1	0.1451297
61	0x3edbb49f	0.4291124
62	0xbc798cbc	-0.015231308
63	0xbe19a8f4	-0.15005857
64	0xbea79378	-0.32729697
65	0xbe851c39	-0.25998095
66	0xbe9f6241	-0.3112965
67	0xbefbd6ea	-0.49187404
68	0x3e80c96d	0.25153676
69	0x3e3fed0d	0.18742771
70	0x3da91c04	0.08257297
71	0x3ecc8287	0.39943334
72	0xbdd9788b	-0.10618695
73	0xbe8b16a2	-0.27165705
74	0xbe9ee9f9	-0.31037882
75	0xbe95315b	-0.29139218
76	0x3d2690cb	0.04066543
77	0xbbdf8229	-0.006820936
78	0x3d54c47a	0.051945187
79	0x3e79c44c	0.24391288
80	0x3e64076e	0.22268459
81	0x3e8c5634	0.27409518
82	0xbe7de7ef	-0.24795507
83	0xbd622efe	-0.055220596
84	0x3ebf37f8	0.37347388
85	0x3cfe295d	0.031025583
86	0x3e43ad62	0.19109109
87	0x3ec5321f	0.38514802
88	0x3ea2c0b9	0.3178766
89	0xbdbb637f	-0.09149837
90	0xbe052398	-0.13001859
91	0x3ea6b6c6	0.3256132
92	0xbeeb29b9	-0.4593027
93	0xbd9e8607	-0.077404074
94	0xbece8f8a	-0.40343887
95	0xbe0ecaaf	-0.13944505
96	0x3e46fd96	0.19432673
97	0xbdeff426	-0.117164895
98	0x3e3626b9	0.17788209
99	0xbe8b9963	-0.27265462
100	0x3e4f8a27	0.20267545
101	0x3e811a06	0.25215167
102	0xbe84caa0	-0.2593584
103	0x3e99f3ca	0.3006881
104	0xbe4d06b9	-0.20022096
105	0xbee30582	-0.4434014
106	0xbdb0ef77	-0.08639424
107	0x3e1028be	0.14078042
108	0xbda2d073	-0.07949915
109	0xbc9c1545	-0.01905311
110	0x3de18737	0.11012118
111	0x3e0870d3	0.13324289
112	0x3e5eaf76	0.2174662
113	0x3f154e88	0.58322954
114	0xbd739cf7	-0.059475865
115	0x3cb3a89a	0.021930981
116	0xbd96e349	-0.0736757
117	0xbe51dbaf	-0.20493959
118	0xbba16296	-0.0049250824
119	0x3e500d60	0.20317602
120	0x3ee27daf	0.44236514
121	0x3e7979a0	0.24362803
122	0x3c4fc5df	0.0126814535
123	0xbe7248cf	-0.23660587
124	0xbea74b47	-0.3267462
125	0x3eaf3d4d	0.34226456
126	0xbe48b262	-0.19599298
127	0x3c38a34f	0.011269405
128	0xbe0f7705	-0.14010246
129	0xbf181064	-0.5940001
130	0xbdcf209c	-0.101136416
131	0xbdb29d38	-0.08721393
132	0x3e28aaef	0.16471456
133	0x3e34f359	0.17670955
134	0x3e19ef89	0.15032782
135	0x3f13c300	0.5771942
136	0xbec5ad40	-0.38608742
137	0x3d0602c0	0.032717466
138	0x3ed6e812	0.4197393
139	0xbe7bcf88	-0.24590886
140	0x3d384aef	0.044993337
141	0x3c2a87fb	0.010408397
142	0xbc8cd484	-0.01719118
143	0x3dd1151b	0.10209104
144	0x3e5d1332	0.21589354
145	0xbdf2a4c1	-0.118478306
146	0x3e8ccaa6	0.27498358
147	0xbe8cac89	-0.27475384
148	0xbdb58250	-0.08862746
149	0x3ea26d84	0.3172418
150	0x3d8dc697	0.06922644
151	0xbd825438	-0.0636372
152	0xbe235917	-0.15951954
153	0xbc069c65	-0.008215998
154	0xbf0b4d8b	-0.54415196
155	0xbe0d864a	-0.13820758
156	0xbd64012f	-0.05566519
157	0x3e81363a	0.25236684
158	0xbf243547	-0.64143795
159	0xbe580ce8	-0.21098673
160	0x3e81da39	0.25361803
161	0xbe1650a8	-0.14679205
162	0x3e1537eb	0.14572112
163	0xbe07337a	-0.1320323
164	0x3e8f6a48	0.28010774
165	0x3d8538e2	0.0650499
166	0x3e6ac5d6	0.22927031
167	0x3e241445	0.16023357
168	0x3e834c96	0.25644368
169	0x3dcfca82	0.10146047
170	0xbe776c9d	-0.24162526
171	0xbe621d1e	-0.2208142
172	0xbe48aedf	-0.19597958
173	0x3f0cc28d	0.5498436
174	0x3df637f4	0.12022391
175	0x3dca1400	0.09867096
176	0x3d2a203c	0.041534647
177	0xbea091a8	-0.31361127
178	0x3eca1e5d	0.3947629
179	0x3d804527	0.0626319
180	0xbedd33ed	-0.4320368
181	0xbe0d25a1	-0.13783886
182	0xbf0039ee	-0.50088394
183	0xbecc1561	-0.3986006
184	0xbde09110	-0.109651685
185	0x3e5c378a	0.21505561
186	0xbe9f1c39	-0.3107622
187	0xbe53366b	-0.20626228
188	0xbea4c297	-0.3217971
189	0xbe3bc9de	-0.18338725
190	0xbe8d30d2	-0.2757631
191	0x3e8eec04	0.2791444
192	0x3e8b0ac2	0.27156645
193	0x3ebb6423	0.36599836
194	0xbc9a6b5e	-0.018850025
195	0x3e5ccf28	0.21563399
196	0xbe7d35a0	-0.24727488
197	0x3d0f2bab	0.034953754
198	0x3e05e79a	0.1307663
199	0xbe8f2092	-0.27954537
200	0xbeb63457	-0.35586807
201	0x3ee702af	0.45119235
202	0xbed0e161	-0.4079695
203	0xbe021f9d	-0.12707372
204	0xbd82b08d	-0.06381331
205	0x3e2d0f03	0.16900258
206	0x3c136c54	0.008997995
207	0x3ec2d6cf	0.3805451
208	0x3e4fb418	0.20283544
209	0x3d00b335	0.031420905
210	0x3d5ae764	0.053443328
211	0xbd82740e	-0.06369792
212	0xbeee724f	-0.46571586
213	0x3ed32eaa	0.4124654
214	0xbe8a42cf	-0.27004096
215	0x3e44ea0c	0.19229907
216	0xbde9b36c	-0.11411175
217	0xbdb27034	-0.08712807
218	0xbc8e4e4e	-0.017371323
219	0x3d722eac	0.05912654
220	0x3e471841	0.19442846
221	0xbcd1014d	-0.025513316
222	0x3e0ffd95	0.14061578
223	0x3ee9ae8f	0.4564099
224	0x3e4f0980	0.20218468
225	0x3d8defd9	0.06930513
226	0xbd34f942	-0.044183023
227	0xbe6c5c33	-0.23082046
228	0xbdf5114f	-0.11966192
229	0xbe473db5	-0.19457133
230	0xbd714325	-0.058901925
231	0x3de5a544	0.112131625
232	0xbd0fa7aa	-0.035072006
233	0x3c8d981c	0.017284445
234	0xbe781e42	-0.24230292
235	0xbe506fc2	-0.20355132
236	0x3eb542fc	0.35402668
237	0xbe58f3fa	-0.2118682
238	0x3d4cf17d	0.05003499
239	0x3e4e559e	0.20149848
240	0x3e7b76ef	0.24557088
241	0xbecec7c8	-0.40386796
242	0xbd2f6b1a	-0.04282675
243	0xbddb5c57	-0.10710972
244	0x3cc75044	0.024330266
245	0x3f0e81c1	0.5566674
246	0xbeb4e53c	-0.35331142
247	0x3d9a5151	0.07535041
248	0xbe041d64	-0.12901837
249	0xbe8422b4	-0.25807726
250	0xbe98de62	-0.29857165
251	0x3f137075	0.5759347
252	0xbe56af0c	-0.20965213
253	0x3eab432e	0.33449692
254	0x3eb867cd	0.36016694
255	0xbe0687d5	-0.13137753

b1 f4 [64]
0	0xbddd155c	-0.107950896
1	0x3e8d26c9	0.27568653
2	0xbe86ab11	-0.26302388
3	0xbe892ed7	-0.26793548
4	0xbe51534f	-0.20441936
5	0x3f06410c	0.52443004
6	0xbe3a3a68	-0.18186343
7	0x3e386acf	0.18009494
8	0x3dafaca9	0.08577854
9	0x3d3d6a4d	0.046243954
10	0x3e65f3af	0.22456239
11	0xbef5ec61	-0.48031905
12	0x3e9a1e65	0.30101314
13	0xbed0f25c	-0.40809906
14	0x3e3c0851	0.18362547
15	0x3e9c1877	0.30487415
16	0x3e599f7b	0.21252243
17	0xbe5f1b61	-0.21787788
18	0xbdd1c6c8	-0.10242993
19	0xbe16ff4e	-0.14745829
20	0xbd6b3347	-0.05742195
21	0x3e294e46	0.16533765
22	0x3dcc3c86	0.099724814
23	0xbe036f04	-0.12835318
24	0x3e69b083	0.2282124
25	0x3c88978e	0.01667383
26	0x3eb98edb	0.36241803
27	0xbdb37924	-0.0876334
28	0xbde57554	-0.11204019
29	0xbd7c5ff8	-0.06161496
30	0x3e4e0f08	0.20122921
31	0xbe58c728	-0.21169722
32	0x3dc97858	0.09837407
33	0xbe3306b2	-0.17483023
34	0x3e28e881	0.16494943
35	0xbec8b1da	-0.3919819
36	0x3d9f1e9a	0.07769509
37	0xbdd9da3e	-0.106373295
38	0xbe839ea4	-0.2570697
39	0xbe78eacf	-0.24308322
40	0x3ba2a726	0.0049637733
41	0x3de4f3de	0.111793265
42	0x3ecf2e7c	0.40465152
43	0xbd527988	-0.051385432
44	0xbd6ce63d	-0.05783676
45	0xbce4b947	-0.027920378
46	0xbddcabcd	-0.10774956
47	0x3e16b902	0.14719012
48	0x3da175da	0.078838065
49	0xbf038ae1	-0.5138379
50	0xbe3342be	-0.17505929
51	0xbe68cd94	-0.22734672
52	0xbdba4e4b	-0.090969644
53	0x3ded1fc6	0.11578326
54	0x3cd95833	0.026531314
55	0xbe8036e7	-0.25041887
56	0xbd98bdbd	-0.07458065
57	0xbe0361ea	-0.1283032
58	0xbe37ea2e	-0.17960426
59	0xbe912e9c	-0.28355873
60	0xbe38bfb6	-0.18041882
61	0x3d127128	0.035752445
62	0xbe08a412	-0.13343838
63	0x3e6cf230	0.23139262

w2 f4 [64, 64]
0	0x3ccc38e4	0.024929471
1	0xbe690d03	-0.2275887
2	0xbcfe4656	-0.031039398
3	0x3dbffc9f	0.093743555
4	0x3da2592c	0.079271644
5	0xbe5d8e95	-0.21636422
6	0xbf1e877c	-0.6192548
7	0x3d6b4bc5	0.057445306
8	0xbece7e92	-0.4033094
9	0x3ea3ed76	0.32017106
10	0x3bb407d2	0.0054940963
11	0x3efb4b1a	0.49080735
12	0xbe92ffec	-0.28710878
13	0xbb09405e	-0.0020942907
14	0xbe84b18d	-0.2591671
15	0xbc3bb33d	-0.011456308
16	0xbe0d4255	-0.13794835
17	0x3e380497	0.17970501
18	0x3e1c7e94	0.1528266
19	0x3db6a7d4	0.089187294
20	0xbeb20a08	-0.34773278
21	0x3d9bf808	0.076156676
22	0xbdda7d7b	-0.10668465
23	0xbebfdb65	-0.37472072
24	0xbe986ed2	-0.2977205
25	0x3d85f777	0.06541341
26	0xbd8b80f8	-0.06811708
27	0xbdd3270f	-0.10310184
28	0xbeafa6b2	-0.34306866
29	0x3e5a1008	0.21295178
30	0x3e92cc12	0.28671318
31	0xbd2aa1f8	-0.04165837
32	0xbf3667f4	-0.7125237
33	0x3f0d574f	0.5521135
34	0xbe86d151	-0.2633157
35	0x3ec60359	0.3867443
36	0x3e7e2beb	0.24821441
37	0xbeb2be8c	-0.34911
38	0xbe1b6db8	-0.15178573
39	0x3f091aea	0.5355669
40	0x3d0a9326	0.033831738
41	0xbe71eda1	-0.23625804
42	0xbd56ff62	-0.052489646
43	0x3f2ce52f	0.67537206
44	0xbe3073ac	-0.17231625
45	0xbda68aba	-0.08131929
46	0xbe9921a1	-0.2990847
47	0x3c19597f	0.009359716
48	0xbd071b32	-0.03298492
49	0x3e028d9f	0.12749337
50	0x3d731636	0.059347354
51	0x3edf48a1	0.436101
52	0xbcba84ff	-0.022768496
53	0xbc00e366	-0.007866716
54	0x3e85f886	0.2616617
55	0xbd7f53d5	-0.062335808
56	0xbe15c869	-0.14627232
57	0x3e3a4604	0.18190771
58	0x390f9c14	0.00013695686
59	0xbe8b5f8b	-0.2722133
60	0xbe901e5d	-0.28148165
61	0x3e13f7e3	0.1445003
62	0xbdf53b21	-0.119741686
63	0xbe6bc3bb	-0.23023884
64	0x3ec50ca8	0.38486218
65	0xbe94e751	-0.2908273
66	0xbeb6502a	-0.35608035
67	0x3f1d6074	0.614753
68	0x3e2ba1d3	0.1676095
69	0x3d1bc962	0.03803385
70	0x3f06734b	0.52519673
71	0xbe8dfa4c	-0.27730024
72	0xbca0d5d3	-0.01963321
73	0xbdba1ac4	-0.090871364
74	0xbd574520	-0.052556157
75	0x3db4cb23	0.08827808
76	0x3cc38b5b	0.02387016
77	0x3dd5f2de	0.10446714
78	0x3e50e3e0	0.20399427
79	0x3d08e528	0.033421665
80	0xbea518ae	-0.32245392
81	0xbd02b3eb	-0.031909864
82	0x3e04dc1c	0.1297459
83	0x3f09b9a6	0.537989
84	0x3cbc9345	0.023019442
85	0xbe66605a	-0.22497693
86	0x3da2ceb0	0.07949579
87	0xbe862ae2	-0.26204592
88	0x3ea338e6	0.31879348
89	0x3eb9f7df	0.36321923
90	0x3db40ccc	0.08791503
91	0xbc7ec2cb	-0.015549372
92	0xbce5eab7	-0.028066022
93	0xbe1480c0	-0.14502239
94	0x3da9c51f	0.08289551
95	0xbec8b8f1	-0.392036
96	0x3ea9d4fc	0.33170307
97	0x3e9996b5	0.29997793
98	0xbcbc63a7	-0.022996737
99	0x3d191106	0.03736975
100	0xbd8c3679	-0.06846327
101	0x3d9558fa	0.072923616
102	0xbeee542a	-0.46548587
103	0xbe2833e2	-0.16426042
104	0xbcd2dc66	-0.02573986
105	0x3dc0034b	0.09375628
106	0xbe160070	-0.14648604
107	0x3e379040	0.17926121
108	0xbd7a5823	-0.06111921
109	0x3d1fa147	0.038972165
110	0x3e67da60	0.22641897
111	0x3e0fa97c	0.14029497
112	0xbddd8b33	-0.10817566
113	0xbb8be9a9	-0.004269798
114	0x3dd6cfa6	0.104888245
115	0x3e78948a	0.24275413
116	0xbec90ef6	-0.39269227
117	0x3e011958	0.12607324
118	0xbe4bc2c6	-0.19898519
119	0x3e3790bb	0.17926304
120	0x3e3d6f59	0.18499507
121	0x3eb847b6	0.3599221
122	0xbea79db8	-0.32737517
123	0xbe41e73c	-0.18935865
124	0xbe56dd17	-0.20982777
125	0x3efdb18d	0.49549523
126	0xbe962f88	-0.29333138
127	0x3d90b6ae	0.070660934
128	0xbc834dae	-0.016028251
129	0xbe969240	-0.29408455
130	0xbf84b999	-1.036914
131	0x3e117bf7	0.14207445
132	0xbd97b0d5	-0.07406775
133	0xbd09cea8	-0.03364435
134	0xbe353a15	-0.17697938
135	0xbf02e11a	-0.5112473
136	0xbd77dd3a	-0.060513712
137	0xbedd51a9	-0.43226364
138	0x3ed8ad78	0.42319846
139	0xbdf5cf54	-0.12002435
140	0xbe0619dd	-0.13095804
141	0x3ce34b95	0.027746001
142	0xbccd60a3	-0.025070494
143	0x3e88bc1e	0.26706022
144	0x3eab8c8f	0.33505675
145	0xbf09664e	-0.5367173
146	0xbeda7909	-0.42670467
147	0x3ce3344b	0.027734896
148	0x3e849315	0.25893465
149	0x3e16cae7	0.14725839
150	0x3dec832c	0.115484565
151	0xbd8e491d	-0.06947539
152	0x3ddbb125	0.10727147
153	0x3e2d3b25	0.16917093
154	0x3ea4eef2	0.3221355
155	0x3d6c605d	0.057709087
156	0xbdc07985	-0.09398178
157	0x3d835a99	0.064137645
158	0xbe2760de	-0.16345546
159	0xbe01bd89	-0.12669958
160	0x39783836	0.00023672063
161	0x3cf3d34e	0.029763844
162	0xbdcc6dae	-0.09981857
163	0xbdf44e76	-0.11929028
164	0xbe1e83e4	-0.1548
165	0xbe0e363f	-0.1388788
166	0x3e281faa	0.16418329
167	0x3db57012	0.08859266
168	0xbe781867	-0.24228059
169	0x3e325f80	0.17419243
170	0x3d835856	0.06413333
171	0xbd324d4c	-0.043530747
172	0xbbd11403	-0.0063805594
173	0x3dffbf3c	0.12487647
174	0x3cb5bbdb	0.022184303
175	0xbdc0fd8d	-0.09423361
176	0x3e6ecb08	0.23319638
177	0x3f077e3b	0.5292699
178	0xbd625317	-0.055255022
179	0x3e4fd272	0.20295122
180	0xbd93e0f5	-0.072206415
181	0xbea2febd	-0.31834975
182	0x3ef76a29	0.4832318
183	0x3e89dcf1	0.26926377
184	0x3e30df3b	0.17272656
185	0x3e31af4c	0.17352027
186	0x3e9623d3	0.29324207
187	0xbeec2338	-0.4612062
188	0x3d3a6ac8	0.04551199
189	0xbe9d9599	-0.30778196
190	0x3e6104c6	0.21974477
191	0x3ca7172f	0.020396797
192	0x3f25353b	0.6453435
193	0x3ed5e7bf	0.4177837
194	0xbeb16b9d	-0.34652415
195	0x3e022a27	0.12711392
196	0x3d12b47c	0.035816655
197	0xbd886ee7	-0.06661778
198	0xbc3a1e7c	-0.011359807
199	0xbee0609a	-0.438237
200	0xbe4dcddf	-0.20098065
201	0x3e8b8fc0	0.2725811
202	0xbd2a9bdf	-0.041652557
203	0x3e6b96d8	0.23006761
204	0x3e9369cb	0.2879165
205	0xbe1c95e6	-0.15291557
206	0xbdc9cdc0	-0.09853697
207	0xbd75cda1	-0.060010556
208	0x3ec3ded7	0.3825595
209	0xbeb0e40a	-0.3454898
210	0xbe214483	-0.15748791
211	0xbe81a6ad	-0.25322476
212	0x3e4652c9	0.19367518
213	0x3e9a0237	0.30079815
214	0x3eb48131	0.35254815
215	0xbdb29554	-0.08719888
216	0x3e4ec1aa	0.20191064
217	0xbe1b617e	-0.15173909
218	0x3e5c0747	0.21487151
219	0x3e1f13ca	0.15534893
220	0x3c06150a	0.008183727
221	0xbd9d6e09	-0.07687003
222	0xbe1d0985	-0.15335663
223	0xbd9a9e79	-0.075497575
224	0xbeb4f878	-0.35345817
225	0xbe54a39d	-0.20765539
226	0xbdeeb2bd	-0.11655185
227	0xbe6544c2	-0.2238951
228	0x3e0fb78b	0.1403486
229	0x3e8ffcd7	0.2812259
230	0xbd691cf0	-0.056912363
231	0x3e66b2bf	0.22529124
232	0xbd0f3da8	-0.03497091
233	0x3cab895a	0.020939518
234	0x3e0232bc	0.12714666
235	0x3e0c8d52	0.13725784
236	0x3f00501a	0.50122225
237	0xbe13c0ec	-0.14429063
238	0x3ecb08c7	0.39655134
239	0xbe69a963	-0.22818522
240	0xbe097e59	-0.13427104
241	0xbe8c6453	-0.2742029
242	0x3de2c36c	0.1107243
243	0xbcaac982	-0.02084804
244	0xbe66633d	-0.22498794
245	0xbe5d6346	-0.21619901
246	0xbeaecd89	-0.34141186
247	0x3f0362ff	0.5132293
248	0xbe30afd3	-0.17254572
249	0xbe978663	-0.29594716
250	0x3e31f61a	0.17379037
251	0x3db71e2c	0.08941302
252	0xbeca018e	-0.3945431
253	0xbe66c374	-0.22535497
254	0xbd3c1ee9	-0.045927916
255	0x3d8f7fa3	0.07006767

b2 f4 [64]
0	0x3e9e5a3d	0.3092822
1	0x3e820e2e	0.25401443
2	0x3da2b6de	0.079450354
3	0x3de1cf70	0.11025894
4	0xbd6b2d8c	-0.057416484
5	0xbeefa41c	-0.46804893
6	0x3dca1ed0	0.09869158
7	0xbce56397	-0.02800159
8	0x3e5eec12	0.21769741
9	0xbe84a618	-0.2590797
10	0x3d0ebccc	0.03484802
11	0xbec95bf5	-0.3932797
12	0x3e75a9fb	0.23990624
13	0x3e6adc3c	0.22935575
14	0xbda5e06b	-0.08099445
15	0x3e6079b1	0.21921422
16	0x3e4de045	0.20105083
17	0x3f229505	0.63508636
18	0xbd8500fb	-0.06494328
19	0x3ef185c8	0.4717238
20	0xbe2f6d0f	-0.17131446
21	0xbd99129e	-0.07474254
22	0x3e8e0999	0.27741697
23	0x3e74a7af	0.23892091
24	0xbd10c260	-0.03534162
25	0xbe854121	-0.26026252
26	0xbe80101b	-0.25012287
27	0xbe7dbfff	-0.24780272
28	0xbc4f7c70	-0.012663946
29	0x3e29e170	0.16589904
30	0xbc7f4a99	-0.01558175
31	0x3d17a7ae	0.037025146
32	0x3ec38a05	0.38191238
33	0x3ca6e0ec	0.020370923
34	0x3f3df479	0.7420116
35	0xbe968700	-0.29399872
36	0xbddbb7c1	-0.10728408
37	0xbe8812d4	-0.26576865
38	0x3dad53bd	0.084632374
39	0xbd2dd0c4	-0.042435423
40	0xbe49e37f	-0.19715689
41	0x3d827f7a	0.063719705
42	0xbe31e18c	-0.17371196
43	0xbd105861	-0.035240535
44	0x3ed557c2	0.41668516
45	0x3d96f5f0	0.073711276
46	0x3e99bee0	0.3002844
47	0x3e861db0	0.26194525
48	0xbe8cabc9	-0.27474812
49	0x3df78e86	0.12087731
50	0x3eafe438	0.34353805
51	0x3f0ebaad	0.55753595
52	0x3c121b35	0.0089176195
53	0xbea7abfc	-0.327484
54	0xbe918737	-0.28423473
55	0x3d46d1a1	0.04853976
56	0x3c788937	0.015169433
57	0x3d140dcd	0.036145974
58	0xbdb840de	-0.089967474
59	0xbd5ab8e8	-0.053398997
60	0x3c8c8f78	0.017158255
61	0xbda1c875	-0.07899562
62	0xbdd53595	-0.104106106
63	0x3be44343	0.006966026

w3 f4 [64, 64]
0	0x3da09fd0	0.07842982
1	0x3db42b3f	0.08797311
2	0x3cc35f0e	0.023849037
3	0xbe0476f7	-0.12936006
4	0xbec6e0e9	-0.38843468
5	0x3e51d32e	0.20490715
6	0xbba061ce	-0.0048944717
7	0xbe41e172	-0.18933657
8	0xbe3c9506	-0.18416223
9	0x3dae7d15	0.08519951
10	0xbe8cd8fc	-0.27509296
11	0x3f0b99e8	0.5453172
12	0xbd892b01	-0.066976555
13	0xbf03e8c8	-0.5152707
14	0xbe9070ab	-0.2821096
15	0x3df953c4	0.1217418
16	0x3ce04c8b	0.027380249
17	0x3ccc91f5	0.024971941
18	0x3eada062	0.33911425
19	0xbe8a3dc3	-0.27000245
20	0x3e909a35	0.2824265
21	0xbd9be73f	-0.07612466
22	0xbe45c3f6	-0.19313034
23	0x3f083bb6	0.5321611
24	0x3d8268c8	0.06367642
25	0x3d0e5dea	0.034757532
26	0x3e038eac	0.12847394
27	0xbdc35334	-0.09537354
28	0x3e08a308	0.13343441
29	0xbe307864	-0.17233425
30	0xbdc7f4a2	-0.09763457
31	0xbd748df7	-0.0597057
32	0x3a0ce205	0.00053742557
33	0x3bf0634b	0.0073360554
34	0xbda90dca	-0.08254583
35	0xbe4633ae	-0.19355652
36	0x3e9f1be9	0.3107598
37	0x3ed0d179	0.40784815
38	0x3ea6ef42	0.32604414
39	0xbf1ab35e	-0.6042994
40	0xbe099b2e	-0.13438103
41	0x3e433997	0.19064938
42	0xbe3e4a3c	-0.18583006
43	0x3d180e83	0.037123214
44	0xbea72cb6	-0.326513
45	0xbe800253	-0.25001773
46	0x3c201414	0.009770412
47	0xbf0c5ef5	-0.5483239
48	0x3e6472f4	0.22309476
49	0xbdab29bc	-0.083575696
50	0x3dc4ba2d	0.09605823
51	0xbdb905dc	-0.09034321
52	0xbda0a6f7	-0.07844346
53	0x3ef79c65	0.48361507
54	0x3ecd9294	0.40150893
55	0x3de31247	0.110874705
56	0xbd1d269d	-0.038366903
57	0xbd8507a3	-0.06495597
58	0x3e384af4	0.17997342
59	0xbdcab626	-0.09898023
60	0xbd65e473	-0.05612607
61	0x3b952120	0.004551068
62	0xbf007d64	-0.5019133
63	0x3e7e98b6	0.24862942
64	0xbedeecda	-0.43540078
65	0xbe04c4f0	-0.1296575
66	0xbed81b6b	-0.42208418
67	0x3e0639bd	0.13107963
68	0x3ef147ac	0.47124994
69	0xbf09ce60	-0.5383053
70	0x3e132450	0.14369321
71	0xbd32477b	-0.0435252
72	0x3dbc153b	0.09183737
73	0xbe52f0d0	-0.20599675
74	0xbe5e5006	-0.21710214
75	0xbe69040f	-0.22755454
76	0xbf20d586	-0.6282581
77	0x3e720cb8	0.23637664
78	0x3d12babb	0.03582261
79	0xbe996e18	-0.29966807
80	0xbc8a6d3e	-0.016897794
81	0xbec9bd69	-0.3940232
82	0x3e9d9545	0.30777946
83	0x3e80688a	0.25079757
84	0x3e5e14ff	0.21687697
85	0x3e37152f	0.17879175
86	0xbe19dc35	-0.15025409
87	0xbe144e0b	-0.14482896
88	0x3ce4a86c	0.027912341
89	0x3d902eb8	0.07040161
90	0xbdb23464	-0.08701399
91	0xbe191c4b	-0.14952199
92	0xbb1443f2	-0.0022623506
93	0x3e9cbfc4	0.30615056
94	0xbebeee9c	-0.3729142
95	0x3e325c29	0.17417969
96	0x3ea36b03	0.3191758
97	0x3ea714ad	0.32632962
98	0x3e88f324	0.26748002
99	0xbcb43bf7	-0.02200125
100	0x3d515822	0.05110944
101	0x3ebce7b2	0.3689552
102	0x3e1008b9	0.14065827
103	0x3eb25403	0.3482972
104	0x3ea9d88d	0.33173028
105	0x3e4b0943	0.19827752
106	0xbe281a62	-0.16416314
107	0x3d40d717	0.047080126
108	0xbe7fe439	-0.24989404
109	0x3ea8271b	0.32842335
110	0xbd96f7f7	-0.07371514
111	0xbd2cb181	-0.04216147
112	0x3e0907a4	0.13381821
113	0x3e2dc446	0.16969404
114	0xbd8985e6	-0.06714992
115	0xbdedbf80	-0.11608791
116	0x3e81b902	0.25336462
117	0x3e6a29f1	0.22867562
118	0xbe6b0108	-0.22949612
119	0xbe0dc73b	-0.13845532
120	0xbe35b125	-0.17743357
121	0xbe065133	-0.13116913
122	0xbe6add1e	-0.22935912
123	0x3f0e610b	0.55616826
124	0xbd48e7ef	-0.049049314
125	0x3d382834	0.044960216
126	0xbdf545d4	-0.11976209
127	0x3c0107c3	0.007875386
128	0x3e8b065e	0.27153295
129	0x3d8aeb80	0.06783199
130	0xbdd8353a	-0.10557027
131	0xbd9f94e5	-0.07792071
132	0xbec93428	-0.39297605
133	0x3e0581d4	0.13037807
134	0xbd12308d	-0.035690833
135	0x3e85c253	0.2612482
136	0xbead2d9d	-0.33823863
137	0xbe9377eb	-0.28802428
138	0x3ea8dd92	0.32981545
139	0x3df6d65b	0.12052604
140	0xbcd5f0ce	-0.026115801
141	0xbe38129d	-0.1797585
142	0xbee0dc62	-0.4391814
143	0x3df89e90	0.121396184
144	0xbe0158cc	-0.1263153
145	0x3e124858	0.1428541
146	0x3d8b8271	0.06811989
147	0x3ea9ee63	0.33189687
148	0x3def65da	0.116893485
149	0xbc62d1b9	-0.013843947
150	0xbd592c89	-0.053020988
151	0xbdab83f3	-0.08374777
152	0xbe86a7bd	-0.2629985
153	0xbef3937b	-0.47573456
154	0x3d90fb16	0.07079141
155	0x3e074fd0	0.1321404
156	0x3e33534e	0.17512247
157	0x3e9daa5c	0.30794036
158	0xbef6af02	-0.48180395
159	0x3f019e43	0.50632113
160	0xbda3d8b0	-0.08000314
161	0xbcece6f2	-0.028918717
162	0x3e046630	0.12929606
163	0x3e33ed31	0.1757095
164	0x3e809e2c	0.25120676
165	0x3b6f6cda	0.0036533386
166	0xbe8608dd	-0.26178637
167	0x3e285b2c	0.1644103
168	0xbb1138d7	-0.0022159123
169	0x3e7a36e6	0.24435005
170	0xbe9a7ef6	-0.30174989
171	0x3d98ac59	0.07454748
172	0xbdf71c75	-0.120659746
173	0xbe430a4d	-0.19046898
174	0x3e93b859	0.28851584
175	0x3d056f6e	0.03257697
176	0x3eb38674	0.35063517
177	0x3f081d25	0.5316947
178	0xbe967b58	-0.2939098
179	0xbea331ca	-0.31873924
180	0x3e27016a	0.16309133
181	0x3ed2c88e	0.41168636
182	0xbeb7f3b2	-0.35928112
183	0x3e7928ef	0.24332021
184	0x3df8c76e	0.12147413
185	0x3e4b27f9	0.19839467
186	0x3d02a71b	0.031897645
187	0x3e4ba7cd	0.1988823
188	0xbd9714a6	-0.07376985
189	0x3f029b80	0.51018524
190	0xbd70c707	-0.058783557
191	0x3e353c55	0.17698796
192	0xbe689bc5	-0.22715671
193	0x3e52965f	0.20565175
194	0xbdd6885b	-0.104752265
195	0xbdb018dc	-0.085984915
196	0xbec2d5e7	-0.3805382
197	0x3e028236	0.12744984
198	0x3d77b9d2	0.060479946
199	0xbed38c7c	-0.4131812
200	0x3e7272a4	0.23676544
201	0xbdd6204d	-0.1045538
202	0x3c7c20a3	0.015388641
203	0xbed553a7	-0.41665384
204	0xbe298cb7	-0.16557585
205	0xbc81962d	-0.01581868
206	0x3e4c8497	0.19972454
207	0x3d7098e2	0.05873955
208	0xbe93e69a	-0.28886873
209	0xbe0c8de1	-0.13725998
210	0xbd948e65	-0.07253722
211	0xbf139b25	-0.57658607
212	0x3b8a3f68	0.0042189844
213	0xbdac5edd	-0.08416531
214	0xbe0dffc4	-0.13867098
215	0xbe9468aa	-0.28986102
216	0x3bd3dd04	0.006465556
217	0x3de1292a	0.109941795
218	0xbdfa3d42	-0.12218715
219	0xbe9407fa	-0.28912336
220	0xbe18895d	-0.1489615
221	0xbeb7d453	-0.35904178
222	0xbedbd061	-0.42932418
223	0xbdd550c8	-0.104157984
224	0x3e8415f7	0.25798008
225	0xbf06a62e	-0.5259732
226	0xbe0fef84	-0.14056212
227	0x3e908a98	0.2823074
228	0xbea60e59	-0.3243282
229	0x3eef0ef4	0.46691096
230	0xbe264060	-0.16235495
231	0x3e730537	0.23732458
232	0xbd7f741b	-0.062366586
233	0xbe6dac07	-0.23210154
234	0xbdf6ba1d	-0.12047217
235	0x3d5ac72d	0.053412605
236	0xbe0bf38b	-0.13667123
237	0x3d83610c	0.064149946
238	0xbbe0910b	-0.006853228
239	0xbe397803	-0.18112187
240	0xbd5fd4ad	-0.054646183
241	0x3e24dda7	0.16100179
242	0x3c5bd074	0.013416398
243	0x3e5e79d0	0.21726155
244	0xbec4d574	-0.38444102
245	0x3e84eb0c	0.25960577
246	0xbe885144	-0.266245
247	0x3ed91abe	0.42403215
248	0x3e8497ba	0.25897008
249	0xbe45a186	-0.19299898
250	0xbe657326	-0.22407207
251	0xbd2392fe	-0.039935105
252	0x3e1c9cf6	0.15294251
253	0x3e022de4	0.12712818
254	0x3e185c5f	0.14878987
255	0x3edf3144	0.43592274

b3 f4 [64]
0	0x3d03e2d9	0.03219876
1	0xbd5d4a15	-0.05402573
2	0xbe17f052	-0.14837769
3	0xbd725a7b	-0.05916832
4	0x3e8f7cd1	0.28024915
5	0xbdf28720	-0.11842179
6	0xbdd276a1	-0.10276533
7	0x3ec224e4	0.3791877
8	0xbe349a61	-0.17637016
9	0xbeca5b12	-0.39522606
10	0xbda4342d	-0.08017764
11	0xbe7ae181	-0.24500085
12	0xbe09781e	-0.13424727
13	0xbdadf0a2	-0.08493163
14	0x3e388158	0.1801809
15	0x3cefb0b4	0.029259063
16	0x3e4d1426	0.20027217
17	0xbe8a274b	-0.26983103
18	0x3e1ad0f0	0.15118766
19	0xbee88bb0	-0.45419073
20	0xbebc1c4f	-0.36740348
21	0xbe5de04f	-0.21667598
22	0xbd84854d	-0.064707376
23	0x3e0a68b3	0.13516502
24	0xbc8d5f5f	-0.01725739
25	0xbe44907b	-0.1919574
26	0xbd2e981f	-0.042625543
27	0xbe15181c	-0.14559978
28	0x3e1fec66	0.15617523
29	0xbe42bd55	-0.19017537
30	0x3e0b7f83	0.1362286
31	0xbdaffdbe	-0.08593319
32	0xbe3513df	-0.17683361
33	0x3ed465f4	0.41484034
34	0xbe011168	-0.12604296
35	0x3e22daf9	0.15903844
36	0xbe316fc7	-0.17327796
37	0x3ec89fcc	0.39184415
38	0x3e83609a	0.2565964
39	0xbe373057	-0.17889534
40	0xbd6dc7b7	-0.05805179
41	0x3d70ec15	0.058818895
42	0x3e138782	0.14407161
43	0xbea1e624	-0.31620896
44	0x3dbff274	0.09372416
45	0xbf3119b5	-0.6917985
46	0x3e241c86	0.16026506
47	0xbe13849f	-0.1440606
48	0x3eb69bed	0.35665837
49	0xbdc19535	-0.09452287
50	0xbe2b3a94	-0.16721565
51	0xbcfb70dd	-0.030693466
52	0xbbf42d3d	-0.007451682
53	0xbd72d75c	-0.059287414
54	0x3ec53574	0.38517344
55	0x3e6c9de8	0.23107111
56	0x3e67c9cb	0.22635572
57	0x3e816b7a	0.2527731
58	0xbebab9c7	-0.36469862
59	0x3d7f851d	0.062382806
60	0xbf1d99fe	-0.615631
61	0xbe040951	-0.12894179
62	0xbed7ecda	-0.4217289
63	0x3ea4d4d0	0.32193613

w4 f4 [64, 64]
0	0xbe1f79a5	-0.15573747
1	0x3e9b8a0d	0.30378762
2	0xbdc75ae3	-0.09734132
3	0x3c8d58e9	0.01725431
4	0xbdccc3a9	-0.09998257
5	0x3ca23a0b	0.019803068
6	0xbea75507	-0.32682058
7	0x3d43a706	0.047766708
8	0x3e8b3ee5	0.27196422
9	0x3eab53e8	0.33462453
10	0x3e8275a9	0.25480393
11	0xbcd8105c	-0.026374988
12	0xbe82f91b	-0.25580677
13	0x3d87ce8f	0.06631195
14	0x3f1ec52e	0.6201962
15	0xbe1fec72	-0.1561754
16	0x3d91647b	0.07099243
17	0x3e016de3	0.12639575
18	0xbd9dc411	-0.07703412
19	0xbe5a6557	-0.2132772
20	0xbe83fd2c	-0.25779092
21	0x3e7deb40	0.24796772
22	0xbec8fbb6	-0.3925454
23	0xbdad31c8	-0.08456761
24	0xbd2973c4	-0.04137017
25	0xbe693c39	-0.2277688
26	0xbd06b4c6	-0.032887243
27	0xbcf5b34d	-0.029992724
28	0xbe921e4b	-0.28538737
29	0xbeaa5a01	-0.33271793
30	0xbdbefc78	-0.09325498
31	0xbee6d421	-0.45083717
32	0xbdbf7387	-0.09348207
33	0xbe930b0c	-0.28719366
34	0xbea6c642	-0.32573134
35	0x3e74f9c5	0.23923405
36	0xbe423d1a	-0.18968621
37	0xbd7fca9e	-0.06244909
38	0xbb3d925e	-0.0028926353
39	0x3ee34485	0.44388214
40	0xbe7f605b	-0.249391
41	0x3f02ca46	0.51089895
42	0xbd80f306	-0.06296353
43	0xbddd1b0a	-0.10796173
44	0x3e6803e8	0.2265774
45	0x3cc0ee93	0.023551261
46	0xbdb6120f	-0.08890163
47	0xbeab5e0d	-0.33470193
48	0xbd2cb1a5	-0.042161603
49	0x3e241404	0.1602326
50	0xbdaa6d68	-0.08321649
51	0xbc189f49	-0.00931532
52	0x3db96aa8	0.09053546
53	0xbeb69db8	-0.35667205
54	0xbe95e54c	-0.29276502
55	0x3cd71bd2	0.026258383
56	0x3d9856ba	0.07438417
57	0x3e0db209	0.13837446
58	0xbc8c1b42	-0.017102841
59	0xbc88368d	-0.016627574
60	0x3ec505cf	0.38480994
61	0xbef00955	-0.4688212
62	0xbe391d89	-0.18077673
63	0x3ecfbc2d	0.40573254
64	0xbe65963f	-0.22420596
65	0x3e501629	0.20320953
66	0xbe171cf4	-0.14757138
67	0x3e667164	0.22504193
68	0x3ed4cf3c	0.41564357
69	0xbe6521f4	-0.22376233
70	0xbde0f46e	-0.10984121
71	0xbe5bb543	-0.21455865
72	0xbd8af405	-0.06784824
73	0x3e987c86	0.29782504
74	0xbd50806f	-0.050903734
75	0x3f39b3d5	0.72540027
76	0x3cdb0085	0.026733646
77	0x3f268b4c	0.650563
78	0x3e62d341	0.221509
79	0x3edec8e4	0.43512642
80	0x3e35a96b	0.17740409
81	0xbea81695	-0.3282973
82	0xbd2f930a	-0.042864837
83	0x3f358358	0.7090354
84	0x3eac5028	0.33654904
85	0xbd5dda8b	-0.054163497
86	0xbd865125	-0.06558446
87	0xbea80609	-0.32817104
88	0x3e823f0c	0.25438726
89	0xbd8777c6	-0.06614642
90	0x3f17accc	0.5924804
91	0x3e97a9b7	0.2962167
92	0x3f05141a	0.519838
93	0x3e95b68e	0.2924084
94	0x3e5cc4b6	0.21559414
95	0xbe3d1a81	-0.18467142
96	0xbeb3abea	-0.35092098
97	0xbd371f14	-0.044707373
98	0xbe3e181c	-0.18563884
99	0x3ce5b2d8	0.02803938
100	0xbe963528	-0.2933743
101	0xbca049cb	-0.019566437
102	0xbf16ac04	-0.58856225
103	0xbf141527	-0.57844776
104	0xbe16a89e	-0.1471276
105	0x3ea3448d	0.31888238
106	0xbe72b2eb	-0.23701064
107	0x3e30c3ce	0.17262194
108	0xbe75da04	-0.24008948
109	0xbe8fe7b6	-0.2810647
110	0x3e587a4f	0.21140407
111	0xbe827d41	-0.25486186
112	0x3e8844e3	0.26615056
113	0x3eb41fe5	0.35180584
114	0xbe63bd94	-0.22240287
115	0xbd23e49a	-0.040012933
116	0xbe98d557	-0.29850265
117	0xbedf69be	-0.43635362
118	0xbe5c8f26	-0.21538982
119	0x3e2b5cec	0.16734666
120	0xbdb5f8f7	-0.08885377
121	0xbd0619c3	-0.032739412
122	0xbe2acbd2	-0.16679314
123	0xbe909c7b	-0.28244385
124	0xbe08fc93	-0.133776
125	0x3caea165	0.021317193
126	0x3ef8bb4f	0.48580405
127	0x3ea476a0	0.32121754
128	0xbe8f93be	-0.28042406
129	0x3e30055d	0.17189546
130	0x3e4525a7	0.19252644
131	0xbe365bb7	-0.17808424
132	0x3d9130f9	0.07089419
133	0x3d9d04ff	0.076669686
134	0x3cbba067	0.022903634
135	0x3e4305ce	0.19045183
136	0x3e7a3285	0.24433334
137	0x3e57168d	0.21004696
138	0xbc612826	-0.013742482
139	0xbe3f78ea	-0.18698469
140	0xbd0dd925	-0.034630913
141	0xbe42b81f	-0.19015549
142	0x3d907a59	0.07054586
143	0xbdcec817	-0.10096758
144	0x3e239fdf	0.15978955
145	0x3e746ca4	0.23869568
146	0x3f0feb41	0.56218344
147	0x3e09964b	0.13436238
148	0x3e5421fe	0.20716092
149	0xbe2ff33f	-0.17182635
150	0xbed2a40d	-0.41140786
151	0xbf0224c0	-0.50837326
152	0x3d24b1a3	0.04020847
153	0x3eef0b30	0.46688223
154	0xbd177b2d	-0.036982704
155	0x3ee773ad	0.4520544
156	0xbe6a6351	-0.22889449
157	0xbde6237c	-0.11237237
158	0x3ebb2eb3	0.36559066
159	0xbd0ad164	-0.033891097
160	0x3ee3da49	0.44502476
161	0xbcacc3f3	-0.02108953
162	0xbe13e78a	-0.14443794
163	0xbe1a3285	-0.15058334
164	0x3dcba378	0.099432886
165	0x3ec38831	0.38189843
166	0x3e46c9e5	0.19412954
167	0x3c87cd39	0.01657735
168	0x3d9fe37b	0.0780706
169	0x3d8206d8	0.063489616
170	0xbb05e9aa	-0.0020433464
171	0x3e82d1da	0.2555073
172	0x3c39ae75	0.011333098
173	0xbe84df8b	-0.259518
174	0x3e91298a	0.28352004
175	0xbe17b3d5	-0.14814694
176	0x3d2255e1	0.03963268
177	0xbec29e84	-0.38011563
178	0xbdd7a73f	-0.105299465
179	0xbdc2fe58	-0.095211685
180	0xbd866df1	-0.065639384
181	0xbda77b33	-0.08177795
182	0xbe9c77b3	-0.30560073
183	0xbe9fd9c7	-0.31220838
184	0x3e34bbe1	0.17649795
185	0x3ca3b4fa	0.019983757
186	0x3e7ded63	0.24797587
187	0x3cbcf1a7	0.023064448
188	0x3cca1fa4	0.02467329
189	0x3df4dd37	0.11956256
190	0x3e07e803	0.13272099
191	0xbea04cde	-0.31308645
192	0xbe34254f	-0.17592357
193	0x3dfb1bfe	0.122611985
194	0x3e73af1a	0.23797265
195	0x3e6ba444	0.23011881
196	0xbd591750	-0.05300075
197	0xbe83a042	-0.25708205
198	0x3e96ec25	0.2947704
199	0xbe78608f	-0.24255584
200	0x3e10e67c	0.14150423
201	0xbd5f5c24	-0.05453123
202	0xbf29891a	-0.66224825
203	0xbd161f6c	-0.03665106
204	0xbf18d027	-0.59692615
205	0xbee5096c	-0.4473375
206	0x3e7de14e	0.24792978
207	0xbdde3387	-0.10849672
208	0x3dd00a5b	0.10158225
209	0x3e5363bf	0.20643519
210	0xbe177a7d	-0.1479282
211	0xbe4835a2	-0.1955171
212	0x3d61b0e0	0.05510032
213	0x3eeefb5d	0.4667615
214	0xbe0aa39e	-0.13538978
215	0xbe8a2e0d	-0.2698826
216	0xbe95dddb	-0.29270825
217	0xbd1afacd	-0.03783684
218	0xbe983e1a	-0.2973488
219	0xbe7f4c2c	-0.24931401
220	0xbdb84c99	-0.08998985
221	0xbd1f5f9a	-0.038909532
222	0x3d5c24d7	0.05374607
223	0xbe65ba44	-0.22434336
224	0x3e8b44e7	0.27201006
225	0xbd3b3d24	-0.045712605
226	0xbe31cf94	-0.17364341
227	0x3ed8bf27	0.42333338
228	0xbd2e800f	-0.042602595
229	0xbece7041	-0.40320018
230	0xbe76916b	-0.2407891
231	0x3d16f9ea	0.03685943
232	0x3ea353e5	0.31899944
233	0x3ca6202d	0.020279014
234	0x3e70104b	0.23443715
235	0xbda8a6a8	-0.08234912
236	0xbd8977f7	-0.067123346
237	0x3a4ea192	0.0007882352
238	0x3e1fc785	0.15603454
239	0x3e886fea	0.26647884
240	0x3f00647a	0.50153315
241	0x3dbe3010	0.09286511
242	0xbbccc2a8	-0.006248791
243	0xbe915ef1	-0.28392747
244	0x3e656104	0.2240029
245	0x3ec5a62c	0.38603342
246	0x3cdf39ad	0.027249182
247	0xbe637889	-0.2221395
248	0xbe1f521c	-0.15558666
249	0xbd6db97e	-0.058038227
250	0x3d759272	0.059954114
251	0xbe5ea42d	-0.21742316
252	0x3dd13d28	0.10216743
253	0xbf0245bb	-0.5088765
254	0x3e45f081	0.19330026
255	0xbe35746c	-0.17720193

b4 f4 [64]
0	0x3e7346f6	0.23757538
1	0x3e63a51e	0.22230956
2	0x3e81eb2f	0.25374743
3	0x3e8db658	0.2767818
4	0xbd90246a	-0.070381954
5	0xbe914b18	-0.28377604
6	0xbe6e6e2f	-0.23284219
7	0xbda9a47a	-0.082833245
8	0x3eaf1f0d	0.34203377
9	0x3d0b5c1c	0.03402339
10	0x3d9b1867	0.07573014
11	0x3ebadb84	0.36495602
12	0x3cf206eb	0.029544314
13	0xbe5ed2af	-0.21760057
14	0x3eaf624d	0.34254685
15	0xbd956821	-0.07295252
16	0xbc4dcd4b	-0.012561153
17	0x3e8c3665	0.2738525
18	0x3ebf2e94	0.37340224
19	0x3eca773a	0.39544088
20	0x3da4f511	0.08054555
21	0x3d8dd9a4	0.06926277
22	0x3da772c9	0.081761904
23	0x3ef2345e	0.47305578
24	0xbe5e02b3	-0.21680717
25	0x3c962ed7	0.018332882
26	0xbe614293	-0.21998052
27	0x3daf43e3	0.0855787
28	0x3e4b49dc	0.19852394
29	0x3ea816e1	0.32829955
30	0x3f059d0c	0.5219276
31	0x3f0d9e46	0.5531963
32	0xbd95e3c0	-0.073188305
33	0xbe8440fa	-0.25830823
34	0x3e9e0b43	0.30867967
35	0xbe85165a	-0.25993615
36	0x3ebbe536	0.36698312
37	0x3de24c99	0.11049766
38	0x3e0ae987	0.13565646
39	0xbe90d6e6	-0.28288954
40	0x3cb270e6	0.02178235
41	0xbea63ca4	-0.3246814
42	0x3d8d9414	0.06913009
43	0xbe4f454c	-0.20241278
44	0x3de8a43f	0.113594525
45	0x3eefe387	0.46853277
46	0xbe7d3b66	-0.2472969
47	0x3ed6b221	0.41932777
48	0xbe2bb723	-0.1676908
49	0x3db8dd02	0.09026529
50	0xbd945991	-0.07243646
51	0x3d0dbd50	0.03460437
52	0x3cdc2c2a	0.026876528
53	0x3e4769f6	0.19474015
54	0xbe9d41f9	-0.30714396
55	0xbe84ea4a	-0.25959998
56	0xbf0fa18c	-0.56105876
57	0x3e980e90	0.2969861
58	0x3ee7550a	0.45182067
59	0x3b99bac9	0.004691456
60	0xbe0a9b12	-0.13535717
61	0x3e367841	0.1781931
62	0xbdd6cf09	-0.104887076
63	0x3d15b50d	0.036549617

w5 f4 [64, 64]
0	0xbd57a5e3	-0.052648436
1	0x3e32576e	0.17416164
2	0xbebd4944	-0.3696996
3	0xbdcc28e4	-0.09968737
4	0x3e907a1b	0.2821816
5	0xbd6acd4e	-0.0573247
6	0x3e4a045a	0.19728222
7	0xbddb639b	-0.107123576
8	0x3e835463	0.2565032
9	0x3e9daeae	0.30797333
10	0x3d4cf7a8	0.05004087
11	0xbe746663	-0.23867182
12	0x3eadc415	0.3393866
13	0xbe9f46e3	-0.3110877
14	0xbdd0531c	-0.10172102
15	0x3dfa8d88	0.12234026
16	0xbbc72cc9	-0.006078337
17	0xbed2e082	-0.4118691
18	0x3eea953f	0.4581699
19	0x3ee7d661	0.45280746
20	0xbe447295	-0.19184335
21	0xbe0c2695	-0.13686593
22	0x3d1479bc	0.036248907
23	0xbe049c25	-0.1295019
24	0x3dcf9186	0.10135178
25	0x3e85dc5d	0.26144686
26	0x3d4e0f34	0.050307468
27	0xbe6e733c	-0.23286146
28	0xbd45065b	-0.048101764
29	0x3ec6ae1d	0.38804713
30	0xbcf00821	-0.029300751
31	0x3ecd720a	0.40126067
32	0x3e536504	0.20644003
33	0x3d592b4d	0.05301981
34	0x3ef09de3	0.46995458
35	0xbeabb180	-0.3353386
36	0xbe352613	-0.17690305
37	0xbd58ae8d	-0.05290084
38	0x3d683969	0.056695376
39	0xbe4c7da3	-0.19969802
40	0x3e746d4d	0.2386982
41	0x3ea7dbd6	0.3278491
42	0x3e12c3b3	0.14332466
43	0x3e9e7cce	0.30954593
44	0xbed4cefa	-0.4156416
45	0x3e576cc0	0.21037579
46	0x3bb2ee61	0.005460546
47	0x3dd32e89	0.1031161
48	0xbe7ae33d	-0.24500747
49	0xbe3a7a5d	-0.1821074
50	0x3ddfe307	0.10931974
51	0x3ea1054a	0.31449348
52	0x3e9c4c6c	0.30527055
53	0x3e6ab29a	0.22919694
54	0xbe16fd6f	-0.14745115
55	0x3e380595	0.1797088
56	0xbf268a23	-0.6505453
57	0xbe35fecd	-0.1777298
58	0xbdf55705	-0.11979488
59	0x3e3037af	0.17208742
60	0xbf114172	-0.56740487
61	0x3d9cfed4	0.07665792
62	0xbf222d04	-0.6334994
63	0x3e9c240c	0.30496252
64	0xbd12e5f7	-0.035863843
65	0x3ec69ded	0.38792363
66	0xbcd00d15	-0.025396863
67	0x3d0f9270	0.035051763
68	0xbe2cfafb	-0.16892616
69	0x3e5bea33	0.21476059
70	0x3f188ab6	0.59586656
71	0x3e83076c	0.255916
72	0xbe3e249e	-0.18568656
73	0xbed5ed74	-0.41782725
74	0xbd1b95c8	-0.03798464
75	0xbcf8bc35	-0.030363182
76	0x3e295541	0.16536428
77	0xbeb4991b	-0.3527306
78	0xbdb2df29	-0.08733971
79	0xbe9e729a	-0.3094681
80	0x3ee8a454	0.45437872
81	0x3e8b9bc5	0.2726728
82	0xbdde1fce	-0.1084591
83	0xbd3b4629	-0.045721207
84	0x3e6c4eb8	0.23076904
85	0x3f0b856e	0.5450047
86	0x3ce5dc83	0.02805925
87	0x3f1739a7	0.59072345
88	0x3f1d19bf	0.6136741
89	0x3ecede93	0.40404186
90	0xbe93af28	-0.2884457
91	0x3d18a1ee	0.037263803
92	0xbe92d46e	-0.28677696
93	0xbeb5c560	-0.35502148
94	0xbe3a14db	-0.18172018
95	0xbc61057a	-0.013734216
96	0xbcac6f91	-0.021049293
97	0x3eb293c5	0.34878364
98	0x3ddb22be	0.10699986
99	0xbec00b58	-0.37508655
100	0x3e19d5ab	0.15022914
101	0xbe9647ed	-0.2935175
102	0x3df3340d	0.11875162
103	0xbdc81f68	-0.09771615
104	0xbde3bbd8	-0.11119813
105	0xbe43b701	-0.19112779
106	0x3cf8ed24	0.030386515
107	0x3c67103b	0.014102991
108	0x3ee19627	0.4405987
109	0x3ceb4896	0.028721135
110	0xbf066811	-0.5250254
111	0x3e60d3bf	0.21955775
112	0x3e1def4a	0.15423313
113	0x3e50b765	0.2038246
114	0xbd138f35	-0.036025245
115	0x3d122556	0.035680138
116	0x3e9c343b	0.305086
117	0xbe658795	-0.22415002
118	0xbe4ff424	-0.20307976
119	0x3dd4b9d7	0.10387009
120	0xbe81c3d8	-0.2534473
121	0xbd1145f6	-0.03546711
122	0xbc2ef4ee	-0.010678513
123	0xbd561549	-0.052266393
124	0x3d95f7b3	0.073226355
125	0x3bbb007b	0.0057068444
126	0x3e35d7cf	0.17758106
127	0x3e1d28ab	0.15347545
128	0xbdf2cd66	-0.11855583
129	0x3b84073b	0.0040291823
130	0xbe66297b	-0.22476761
131	0x3eec5700	0.46160126
132	0xbe7d24f3	-0.24721126
133	0x3ea88026	0.3291027
134	0x3c9fa636	0.019488435
135	0xbb7c07e0	-0.0038456842
136	0xbd9a3506	-0.07529645
137	0x3e920c65	0.2852508
138	0x3e6ad324	0.22932106
139	0x3ddf42dd	0.10901425
140	0x3e40236f	0.18763517
141	0x3ebc3c1e	0.36764616
142	0xbe60107b	-0.21881287
143	0xbed9c86f	-0.4253573
144	0xbe79b7a1	-0.24386455
145	0x3e91bfaf	0.28466555
146	0xbe647506	-0.22310266
147	0xbeb11fb7	-0.3459451
148	0xbde10fea	-0.109893635
149	0x3ec03fff	0.37548825
150	0xbd6c5850	-0.05770141
151	0x3960e694	0.00021448202
152	0x3e571cef	0.21007131
153	0x3eaf841d	0.34280482
154	0xbe7d2be0	-0.24723768
155	0xbd85a50f	-0.06525623
156	0xbe853228	-0.2601483
157	0xbef0ab05	-0.47005478
158	0x3d609ee4	0.05483903
159	0xbd7e03ea	-0.06201545
160	0x3d7d75c5	0.061879892
161	0x3dfab23c	0.12241027
162	0xbd71a0fc	-0.058991417
163	0xbddb1cd8	-0.10698861
164	0x3e1bfc85	0.15233047
165	0x3da7fa6b	0.0820206
166	0xbe542e62	-0.20720819
167	0x3e109272	0.14118364
168	0x3e083a20	0.13303423
169	0x3c98c0fb	0.018646708
170	0xbcbae6c8	-0.022815123
171	0x3d8708c1	0.065934666
172	0xbc59661c	-0.013268974
173	0xbe96b5b5	-0.29435506
174	0xbde2656b	-0.110545
175	0xbe8b852d	-0.27250043
176	0x3e2529b3	0.16129188
177	0xbea399b5	-0.31953207
178	0x3d66cb52	0.056346245
179	0xbe620069	-0.22070469
180	0x3e87fe37	0.26561138
181	0xbe1a2510	-0.150532
182	0x3e73e780	0.23818779
183	0x3eaf5558	0.342448
184	0x3d8df3cc	0.06931266
185	0x3ebc4761	0.36773208
186	0xbe60368e	-0.21895811
187	0xbe4d8649	-0.20070757
188	0xbd8824bf	-0.06647634
189	0x3e7c3300	0.2462883
190	0x3e291a03	0.16513829
191	0x3e8d0e96	0.2755019
192	0x3eac8258	0.33693194
193	0xbcbe0eb4	-0.02320037
194	0xbd148152	-0.036256142
195	0x3ea08da9	0.31358078
196	0xbee96264	-0.4558288
197	0x3d8c4233	0.06848564
198	0xbe6eb1c9	-0.23310007
199	0xbbb641a8	-0.005562026
200	0x3de2448b	0.1104823
201	0xbe18bc58	-0.14915597
202	0x3b076e72	0.0020665196
203	0x3e009552	0.12556961
204	0xbbf86304	-0.007580163
205	0xbebeb454	-0.37246954
206	0x3e175f9b	0.14782564
207	0x3db800cb	0.08984526
208	0x3e623cea	0.2209355
209	0x3ec4de2d	0.38450757
210	0xbebbd005	-0.36682144
211	0x3e4a5f05	0.1976281
212	0x3d98fc8d	0.07470045
213	0x3e0dcf26	0.13848552
214	0x3e444422	0.19166616
215	0xbe96d69b	-0.29460606
216	0x3dafeed5	0.085904755
217	0x3e9953fa	0.29946882
218	0x3e857c69	0.2607148
219	0xbde9ba33	-0.11412468
220	0xbd8da82d	-0.069168426
221	0xbe6394c9	-0.22224726
222	0x3e1703b1	0.14747502
223	0xbe075d0a	-0.13219085
224	0x3dfb6d89	0.122767515
225	0x3dde1de7	0.10845547
226	0xbe3fde87	-0.18737231
227	0xbe260c81	-0.16215707
228	0x3eb76aa5	0.3582355
229	0x3e818ab1	0.25301126
230	0xbd9b50ff	-0.07583808
231	0x3c815610	0.015788108
232	0x3e83b926	0.25727195
233	0x3e22888d	0.15872402
234	0x3e9e59ca	0.3092788
235	0x3cfef613	0.031123197
236	0xbf13c2e6	-0.57719266
237	0xbf06378d	-0.52428514
238	0x3d8ce58f	0.06879722
239	0x3e2800c1	0.16406538
240	0xbe67c903	-0.22635274
241	0x3f0da8f9	0.55335957
242	0x3e2ab266	0.16669616
243	0xbea21fb3	-0.3166481
244	0x3e1669b9	0.14688767
245	0xbe0b3e0d	-0.13597889
246	0xbd186778	-0.03720805
247	0x3e80ab9e	0.25130934
248	0x3e3c83b8	0.18409622
249	0x3e445881	0.19174387
250	0x3b661b3d	0.003511145
251	0xbe8c7ccf	-0.2743897
252	0xbe4f13bc	-0.20222372
253	0x3dce6702	0.10078241
254	0xbeca0ba7	-0.39462015
255	0xbee9a0d9	-0.4563053

b5 f4 [64]
0	0xbea75528	-0.32682157
1	0x3e480662	0.19533685
2	0xbd54c80a	-0.051948585
3	0x3ee3695d	0.44416323
4	0xbbb6eabd	-0.005582182
5	0x3f42b2c0	0.76054
6	0x3e8d1efb	0.275627
7	0x3e09361c	0.13399547
8	0x3e0d31aa	0.13788477
9	0xbdfd3cf9	-0.12365145
10	0x3da3ee77	0.08004468
11	0x3dd9b2b8	0.10629791
12	0x3e02a4b1	0.12758137
13	0x3cfc8ec9	0.030829804
14	0xbe2b7f49	-0.16747774
15	0xbe8b82ab	-0.2724813
16	0xbeaec547	-0.34134886
17	0x3e5d0157	0.21582542
18	0x3f015913	0.5052654
19	0x3ebf60da	0.3737858
20	0xbe7f9bb0	-0.24961734
21	0x3e1cfeba	0.15331545
22	0x3dad8878	0.08473295
23	0xbe9b8291	-0.30373052
24	0x3e663bd1	0.22483756
25	0xbd946b65	-0.072470464
26	0xbe652bcc	-0.22379988
27	0x3edfb4f3	0.4369274
28	0xbcef3831	-0.029201599
29	0x3eefd024	0.46838486
30	0x3ea2bf82	0.31786734
31	0xbc9456f8	-0.018107876
32	0x3dc9972b	0.09843286
33	0x3d9dea24	0.077106744
34	0xbe7876e2	-0.242641
35	0xbd7997de	-0.060935847
36	0x3daf4872	0.0855874
37	0x3d831d2e	0.0640205
38	0x3de329f3	0.110919856
39	0xbe27de9b	-0.16393511
40	0xbdbadfda	-0.091247275
41	0xbe912659	-0.2834957
42	0xbd5653f3	-0.052326154
43	0xbc5333f5	-0.0128908055
44	0x3c3bf0fe	0.011471031
45	0x3e4e85e0	0.20168257
46	0xbe9e4944	-0.30915272
47	0x3e15ecb0	0.1464107
48	0x3e819838	0.25311446
49	0xbe5cc71a	-0.21560326
50	0xbc00ec1d	-0.007868794
51	0x3e1b905b	0.15191786
52	0x3d839988	0.06425768
53	0xbf278642	-0.65439236
54	0xbe2d139a	-0.16902009
55	0xbda84d08	-0.082178175
56	0x3e662a78	0.22477138
57	0xbd5af9ed	-0.053461004
58	0x3d15fac2	0.036616094
59	0x3e91463a	0.2837389
60	0xbec825eb	-0.3909143
61	0x3e497de7	0.19676934
62	0xbeb9e614	-0.36308348
63	0xbea1a058	-0.31567645

w6 f4 [64, 64]
0	0x3dbb8115	0.0915548
1	0x3e3a7965	0.18210371
2	0x3e3fd301	0.18732835
3	0xbe237cf9	-0.15965642
4	0xbe2cce40	-0.16875553
5	0x3c54feba	0.013000185
6	0x3e08bc31	0.1335304
7	0x3dbf9aa2	0.09355666
8	0xbe8e396f	-0.27778193
9	0x3d874855	0.06605593
10	0x3d8d5447	0.0690084
11	0x3e815998	0.25263667
12	0xbe1d4231	-0.15357281
13	0xbd74ad5a	-0.059735633
14	0xbf059573	-0.52181166
15	0x3eefd1e7	0.4683983
16	0x3cbb34d3	0.022852337
17	0x3e398383	0.18116574
18	0x3e53b767	0.20675431
19	0xbe7edb91	-0.24888445
20	0xbe78111c	-0.24225277
21	0xbe5a680a	-0.2132875
22	0x3d6f0f74	0.058364347
23	0xbe1dfa3b	-0.15427487
24	0xbd7aa8f0	-0.061196268
25	0x3ee3e0f9	0.44507578
26	0x3ead2718	0.3381889
27	0xbe5232a2	-0.20527127
28	0x3f402370	0.75054073
29	0x3e44b2a9	0.19208778
30	0x3eeb0c2f	0.45907733
31	0xbe3ee600	-0.18642426
32	0x3dc397a5	0.09550408
33	0x3db681ea	0.08911498
34	0xbde19daf	-0.11016404
35	0x3e36ffec	0.17871064
36	0x3ea8370a	0.3285449
37	0x3d9e2b4e	0.077231035
38	0x3b6f97e0	0.003655903
39	0xbf1536f0	-0.5828695
40	0xbd748c2a	-0.059703983
41	0xbed96ec4	-0.4246732
42	0x3e7d780f	0.2475283
43	0xbe0b06cd	-0.13576813
44	0xbecf4541	-0.40482524
45	0x3e9a1fb9	0.30102327
46	0xbf028683	-0.509865
47	0x3e350970	0.17679381
48	0x3e96691b	0.29377064
49	0x3de4f449	0.11179406
50	0xbd957cbc	-0.07299182
51	0xbe9f4565	-0.3110763
52	0x3e3161be	0.17322442
53	0x3ea2802f	0.3173842
54	0xbd11ff33	-0.035643768
55	0x3d90a600	0.07062912
56	0x3e631ac9	0.22178186
57	0xbef39778	-0.475765
58	0xbed3554f	-0.41276023
59	0xbdd779eb	-0.10521301
60	0x3eab2c48	0.3343222
61	0xbe8d98e1	-0.276557
62	0x3b872df6	0.004125352
63	0xbe7257a5	-0.23666246
64	0x3e9165f6	0.28398103
65	0xbebb6637	-0.3660142
66	0xbe67bc63	-0.22630458
67	0x3ea5670d	0.32305184
68	0xbef28529	-0.47367218
69	0xbd695c7e	-0.056972973
70	0x3e9980a7	0.29980966
71	0xbe634187	-0.22192965
72	0xbe354511	-0.17702128
73	0xbdcd9129	-0.10037453
74	0x3c57f184	0.01318014
75	0xbf1b99ec	-0.6078174
76	0x3e08d428	0.13362181
77	0x3ed5536f	0.41665217
78	0x3e89a02b	0.2688001
79	0xbc412c0f	-0.01179029
80	0x3e8c361b	0.2738503
81	0xbd8a6fec	-0.06759629
82	0xbe994dea	-0.29942256
83	0x3e33df26	0.17565593
84	0xbe3fb4a9	-0.1872126
85	0xbe5164a3	-0.20448546
86	0x3e6ba35e	0.23011538
87	0x3c751c82	0.01496041
88	0xbc125474	-0.008931268
89	0xbc4a93a8	-0.012364306
90	0x3ea504f4	0.3223034
91	0xbe4d6fb0	-0.20062137
92	0x3d40fd3a	0.047116496
93	0xbf1436cf	-0.5789613
94	0xbe44db26	-0.19224223
95	0x3d150c0f	0.036388453
96	0xbe8d9e48	-0.27659822
97	0xbe42c606	-0.19020852
98	0x3f03a51b	0.51423806
99	0xbe05f5b6	-0.13082013
100	0x3ceeb01e	0.029136714
101	0xbe3a3fcb	-0.18188398
102	0xbe8358ad	-0.25653592
103	0xbed44f84	-0.41466916
104	0xbe036fc9	-0.12835611
105	0xbd504a43	-0.05085207
106	0xbe07a643	-0.13247018
107	0xbd5384de	-0.051640384
108	0xbe41815a	-0.18897
109	0xbce58a04	-0.028019913
110	0x3d2621fd	0.040559758
111	0xbdbd7dcd	-0.0925251
112	0x3d73b32d	0.059497047
113	0xbeb6eed1	-0.35729077
114	0xbb681db0	-0.0035418086
115	0xbe605a1c	-0.21909374
116	0xbb2160ad	-0.0024624274
117	0xbc227eaa	-0.009917894
118	0x3a821dd9	0.0009927108
119	0xbe88f254	-0.26747382
120	0x3dbb350f	0.091409795
121	0x3e9ccfcb	0.30627283
122	0x3e39fd2c	0.18162984
123	0xbdad70b9	-0.08468766
124	0x3f22a923	0.6353933
125	0xbe1c3989	-0.15256323
126	0x3ec52cef	0.38510844
127	0xbea8e05d	-0.32983676
128	0x3d56d1f2	0.052446313
129	0x3e95b9c3	0.29243287
130	0x3e09b25c	0.13446945
131	0xbc36ab0b	-0.011149178
132	0x3c236adb	0.009974207
133	0xbd2d2937	-0.042275634
134	0x3e71e389	0.23621954
135	0x3cfbd8c7	0.030743016
136	0xbe97f1b3	-0.2967659
137	0xbe52527f	-0.20539282
138	0xbdaf18a3	-0.08549621
139	0xbe24b6ca	-0.16085353
140	0xbdc407c7	-0.09571796
141	0xbd1b2132	-0.037873454
142	0xbcc41224	-0.023934431
143	0x3d652fbb	0.055953722
144	0xbe2fee11	-0.17180659
145	0x3e491be6	0.19639549
146	0xbe513306	-0.2042962
147	0x3e21061b	0.15724985
148	0x3e50c253	0.20386629
149	0x3e9fe876	0.3123204
150	0x3e19502e	0.14971992
151	0x3c9b4281	0.01895261
152	0xbeaae4ae	-0.33377594
153	0x3e147786	0.1449872
154	0xbe1396d9	-0.14413013
155	0xbeabc369	-0.33547524
156	0x3ed4f688	0.41594338
157	0xbefabf36	-0.48974007
158	0xbd8a1270	-0.06741798
159	0x3db4c805	0.08827213
160	0x3d9099c0	0.070605755
161	0x3cf5bf85	0.02999855
162	0x3e658eb2	0.22417715
163	0x3d596886	0.053078197
164	0xbdc10dc4	-0.09426454
165	0x3ebb8a6b	0.36629042
166	0xbeb0fec3	-0.34569368
167	0xbe977445	-0.29580894
168	0x3e2a6a25	0.16642053
169	0x3dcc4c17	0.099754505
170	0xbd18c787	-0.03729966
171	0xbd6c6710	-0.057715476
172	0xbeaa16de	-0.3322057
173	0x3e13c3f3	0.14430217
174	0xbe409cab	-0.18809764
175	0x3b43642f	0.0029814353
176	0x3dbc216a	0.09186061
177	0x3e0f9853	0.14022951
178	0xbb9fc6bb	-0.0048759854
179	0xbe759159	-0.23981227
180	0x3c724b45	0.0147884535
181	0x3dc8a999	0.09797973
182	0xbcd3d8a0	-0.02586013
183	0x3e96e7e3	0.2947379
184	0x3e955303	0.29164895
185	0x3f1ae9c9	0.6051298
186	0xbe125c05	-0.14292915
187	0x3dfa0b5b	0.12209197
188	0x3db3920a	0.08768089
189	0x3b8f49b5	0.0043728002
190	0xbed2e69c	-0.41191566
191	0x3f058d4f	0.52168745
192	0x3e57ad9d	0.21062322
193	0xbd9e446e	-0.07727896
194	0x3e2032e7	0.15644418
195	0x3e610c43	0.21977334
196	0x3e51ca1f	0.2048726
197	0x3ea20bac	0.3164953
198	0x3e2423be	0.1602926
199	0xbd92e676	-0.07172863
200	0xbd5d4071	-0.054016534
201	0xbd71005b	-0.05883823
202	0xbe8b5c69	-0.2721894
203	0xbe77688b	-0.24160974
204	0x3e4295e7	0.19002496
205	0x3ea1ab4f	0.3157601
206	0xbe3fe563	-0.18739848
207	0x3c383684	0.011243466
208	0xbe1bef04	-0.15227896
209	0x3e46ea13	0.1942523
210	0xbed75b64	-0.42061913
211	0x3b837f1d	0.004012956
212	0xbd7c938a	-0.06166414
213	0x3de8eb1c	0.113729686
214	0x3df23ef5	0.11828414
215	0xbecd8479	-0.4014013
216	0x3d2ceb19	0.042216394
217	0x3ef505f0	0.47856092
218	0x3d8e47d7	0.06947296
219	0xbf0f7bac	-0.56048083
220	0xbe89c2bb	-0.2690638
221	0x3e4343cf	0.19068836
222	0xbe618704	-0.2202416
223	0x3e5d7898	0.21628034
224	0xbe3fc939	-0.18729104
225	0xbc38f3c9	-0.011288592
226	0xbda52233	-0.080631636
227	0xbed237d5	-0.4105822
228	0x3e06db1a	0.13169518
229	0xbe0582f1	-0.13038231
230	0xbe1da105	-0.15393455
231	0xbdbc5eeb	-0.09197792
232	0x3eadb728	0.339288
233	0x3e507fd7	0.20361267
234	0xbdbe06c9	-0.09278638
235	0x3efc7130	0.49305105
236	0x3da3b9d0	0.07994425
237	0xbe04789c	-0.12936634
238	0xbcd5a144	-0.026077874
239	0x3f1552fb	0.58329743
240	0xbe1d8f79	-0.15386762
241	0xbd9026e9	-0.070386715
242	0xbdcb9dcd	-0.099422075
243	0xbe4d5666	-0.2005249
244	0xbe6c43a3	-0.23072676
245	0xbee0edb7	-0.43931362
246	0x3da7cd51	0.08193458
247	0xbe98d10d	-0.29846993
248	0xbe48e8bf	-0.19620036
249	0xbe4217b3	-0.18954353
250	0x3dd7064d	0.10499249
251	0x3e1504cf	0.14552616
252	0xbdfb9bd6	-0.12285583
253	0x3e7f02cd	0.24903412
254	0xbc93806a	-0.018005569
255	0x3b93024c	0.004486358

b6 f4 [64]
0	0xbe051a8e	-0.12998411
1	0x3e0671d2	0.13129357
2	0x3ead99a2	0.33906275
3	0xbe4698f2	-0.19394282
4	0xbe2a6e2b	-0.16643588
5	0xbe834708	-0.2564013
6	0xbe4ce78c	-0.20010203
7	0xbeb3e3a9	-0.35134628
8	0xbe5b2bb1	-0.21403386
9	0x3f07e774	0.53087544
10	0xbd6d455b	-0.05792747
11	0xbe1d77e7	-0.1537777
12	0xbdda1222	-0.1064799
13	0xbcf0898e	-0.029362466
14	0xbe9e7024	-0.30944932
15	0x3e4a6e1f	0.1976857
16	0x3d9d53c4	0.07681993
17	0x3e5f50c9	0.21808161
18	0x3b151aa0	0.0022751465
19	0xbe897d3c	-0.2685336
20	0x3d01e3b2	0.031711288
21	0xbe67f631	-0.22652508
22	0xbd475f9b	-0.04867516
23	0x3c1a9da3	0.009436998
24	0x3d7e331c	0.06206046
25	0xbf07a6a9	-0.5298868
26	0xbeb0b685	-0.3451425
27	0xbe423ac9	-0.18967737
28	0xbde3443e	-0.110970005
29	0xbe9387b5	-0.28814474
30	0x3e41a4dd	0.18910547
31	0xbe17d899	-0.14828719
32	0x3e984c0d	0.29745522
33	0x3da73ac1	0.08165503
34	0x3df5cfdb	0.12002536
35	0x3ea76300	0.32692719
36	0xbda275cc	-0.07932624
37	0xbec33a8d	-0.38130608
38	0xbe05c264	-0.13062435
39	0x3f2c2c61	0.67255217
40	0xbe8670dd	-0.26257983
41	0xbe843325	-0.2582027
42	0xbdfcfcf5	-0.12352935
43	0xbecb1814	-0.39666808
44	0x3d1adbb9	0.0378072
45	0x3ef0da4e	0.47041553
46	0xbda2662c	-0.07929644
47	0x3e90f83b	0.28314385
48	0xbe86f6c3	-0.2636014
49	0xbeeec043	-0.4663106
50	0x3ec6fbb7	0.38863918
51	0x3dbd0247	0.0922895
52	0x3f2d948b	0.67804784
53	0x3e869583	0.26285943
54	0xbe576f9a	-0.21038666
55	0xbe61df70	-0.22057891
56	0x3e9f5fab	0.31127676
57	0x3d85fbea	0.065421894
58	0xbec48c4b	-0.38388285
59	0xbe8062da	-0.25075418
60	0xbd647152	-0.055772133
61	0x3ea57e47	0.32322904
62	0x3dac3a8a	0.08409603
63	0xbd501650	-0.05080253
