DNN/model.pth (torch, 95688 bytes, 13 tensors)

w1 f4 [32, 64]
00000000: 0031 47bc 094c 5c3d 70f2 913c 47d8 9a39
00000010: 3ebd edbd 08b2 5f3d 18ec a8bd 3e2b a03d
00000020: 514d 11bb b2ea 57bd ade3 b83d 7f3e 233d
00000030: 6992 4d3d 1d37 d13c c787 8fbd 33bf 963c
00000040: 9ac2 c13c cd1f ee3c b835 62bd b047 763c
00000050: 95bf d7bc d639 d63d 2f62 8e3d 1366 043d
00000060: d0a3 5abc 5477 a8bd 7dcd ed3d ed50 123e
00000070: 7437 45bd 2300 513a 7d65 e2bd 8a71 0fbd
00000080: 9023 ae3d fb24 6b3e d039 e8bc b4a4 17bb
00000090: ab8b f73c e90f e03d fb6a 07be a02e 3d39
000000a0: 0fa1 1a3d 68ab e6bd ddf8 94bd fee2 ce3d
000000b0: 7500 253e 605f 55bc ebf6 f13d 0a70 ddbd
000000c0: 2602 e8bd dd8b 48ba 007a fcbd b7ae e33d
000000d0: f101 99bd 459a 293e 9d51 793e 3d3f 54bd
000000e0: afb3 593d a0df a73d 6c2a 06be b200 423c
000000f0: 5009 59bd 8e1a b4bd 011d 8d3d b7e4 0d3c
00000100: 4798 193e 66d6 f4bb e22a 963d ffca e33d
00000110: 9501 043d 3719 1b3e 7465 91be 2985 203e
00000120: abb2 2bbd 2d5a 3ebe 7635 e93b 8645 3cbd
00000130: 019c 73bd 641c 04be eda3 9f3d fd8b 9b3d
00000140: bf03 1abc 959a b53d 676d d6bc 8e63 b23d
00000150: 3311 1cbd c29e 603d b25c dfbd fb2b 02be
00000160: e89c 97bd fc90 3dbe 295e 823d a5f5 73bd
00000170: 509f efbd 09a2 efbc 5df7 75bd 3357 10be
00000180: f2f7 82bd f638 98bd 754d 33be 885a a13d
00000190: b1de de3d 27d8 2cbd 6739 08be c3a8 b83d
000001a0: d718 24be 7337 493e a3c0 6cbd c26b ebbc
000001b0: b260 51bd 01e4 01be 43ab cb3d 0d9f cb39
000001c0: 4bc5 f3bc aa50 f73d 200a 013d c424 d83d
000001d0: 0bdf 003d 88a9 803d 809e f03d c1e1 e63c
000001e0: 3789 8ebc e0c3 d8bd cfde 9fbd 327d aabd
000001f0: 4f46 07be 2b8e 463c 6e87 813e 2926 debc
00000200: f564 a935 f7f7 17be 8eeb 86bd 5a7e 293d
00000210: 20c0 4a3d a095 903c f41a 97bd b290 cdbb
00000220: 0925 a53d b59f 8dbe 0c9a 50bd 6556 9c3d
00000230: 318d 84bd 97f1 d2bd 8e33 26be 34cc 5abd
00000240: e2be 04bd 0581 f8bd 8a45 5abd b1e6 92bd
00000250: 567b d63c 0141 9ebc 34fe 393d 623c 223d
00000260: b97a 483d 387e adbd 9d2b 4ebc b457 d3bc
00000270: 49ff 30be 3283 953d f83a a83d a4be 96bd
00000280: 969f cdbd 0c39 1fbe dcb9 563c 9fed 933c
00000290: 5665 143d e857 db3d 8e8c 2e3d 3d0a 163d
000002a0: af15 b2bd a7f5 7c3d 543d 3b3c fb07 0abe
000002b0: cf6d 04be af84 79bc a6d5 94bd 5c9c 1abd
000002c0: 146d 22be e3db 19bd 6288 fe3c 57d0 243e
000002d0: 9f11 bf3c e713 293d a311 a0bc cc08 76be
000002e0: b114 2e3e f8fb 2c3e 2d12 da3d a0cc aa3d
000002f0: a9f3 dbbd 2c6f 54bd 10fb 64bd 8c18 2f3e
00000300: d209 b93c 5960 913c 233a b7bd ef8c 9d3d
00000310: 65a0 ff3c 4ff0 f0bd 173a 653e 6611 0dbe
00000320: 035c 223e 1768 0cbc b41c 9d3c ba43 9fbd
00000330: d2a0 c83d 037c 12bc aa2b 50bd e8ae 0e3d
00000340: c5a0 963d 968f 19be 50ba 6c3e 1ad7 4fbd
00000350: 093f 1ebd 57dc 8f3d c654 c8bd 3fb6 a43c
00000360: f5fe ea3d 94f5 883e af4c 03be 3255 a7bd
00000370: 143e 6e3d defb 8cbc 9060 cf3d d556 6e3e
00000380: 65d8 e73d 4075 9e3d 72d7 66be a08d 0f3d
00000390: 4da3 ed3d fd4b 943d ee8d 6cbd f836 86bd
000003a0: 50f2 08bd 5aa5 f139 88fb 6b3d 09d2 34be
000003b0: 5bc6 0cbc 98f3 233d 6f56 82bc fb8e a8bd
000003c0: 92bb 0fbd 0566 253d 68b4 15be 9b8c 693d
000003d0: 7cde 193d de88 77be eb61 813d 4657 063e
000003e0: 1859 1abb 2ded 3dbe 2d3f b7bc e61e 4bbd
000003f0: 5c2c ee3d b0b8 393d cf00 0a3d 1c58 be3c
-0.012157679 0.05378345 0.017815799 0.00029534308 -0.11608361 0.054613143 -0.08248156 0.07820748
-0.0022171328 -0.052714057 0.09027801 0.039854523 0.050188456 0.025538975 -0.07008319 0.018401718
0.023652364 0.029067898 -0.05522701 0.01503174 -0.02633647 0.1046025 0.06952321 0.032323908
-0.01334472 -0.08225885 0.116114594 0.14288683 -0.048148587 0.00079727377 -0.110545136 -0.03502039
0.08502877 0.22963326 -0.02834788 -0.0023138942 0.030217966 0.109405346 -0.13224404 0.00018041814
0.037751254 -0.11263162 -0.072740294 0.10101889 0.16113456 -0.013023227 0.11814674 -0.108123854
-0.11328535 -0.0007650236 -0.12327957 0.111173086 -0.074710734 0.16562755 0.24347539 -0.05181812
0.053149875 0.0819695 -0.1310212 0.011840986 -0.052987397 -0.087941274 0.06890298 0.008660487
0.14999495 -0.0074718473 0.07332398 0.11122703 0.03222807 0.15146337 -0.28397715 0.15675797
-0.041918438 -0.18589087 0.0071169687 -0.04596474 -0.05947495 -0.12901455 0.07794938 0.0759506
-0.009400307 0.08867375 -0.026175214 0.08710395 -0.03810234 0.054838903 -0.10906352 -0.1271209
-0.07402974 -0.18512338 0.06365616 -0.059560437 -0.11700308 -0.02925207 -0.060050357 -0.14095764
-0.06394948 -0.074327394 -0.17510016 0.078785956 0.10882319 -0.042198326 -0.13303147 0.09016564
-0.160251 0.19650058 -0.0578009 -0.028737906 -0.051117606 -0.12684633 0.09944775 0.0003883768
-0.029757163 0.12075932 0.031503797 0.105538875 0.03146271 0.062823355 0.117489815 0.02818382
-0.017399414 -0.10584235 -0.07806169 -0.0832466 -0.13210414 0.012118856 0.25298637 -0.027117806
1.2620864e-06 -0.14840685 -0.06587897 0.041380264 0.04949963 0.017649472 -0.07378188 -0.0062733525
0.080637045 -0.2766091 -0.05092816 0.07633666 -0.064722426 -0.10299986 -0.16230604 -0.0534174
-0.032408603 -0.121339835 -0.053288974 -0.07172907 0.026181858 -0.019318106 0.045408443 0.039608367
0.048945162 -0.0847134 -0.01258364 -0.025798656 -0.17284884 0.07300414 0.082143724 -0.073605806
-0.10040204 -0.15549105 0.013105836 0.018057643 0.036229454 0.10710126 0.042614512 0.036630858
-0.08695542 0.06175771 0.011428196 -0.13479607 -0.12932514 -0.015229388 -0.07267313 -0.037746772
-0.15861923 -0.037563216 0.031070892 0.160951 0.023323832 0.041278746 -0.01953966 -0.24026793
0.1700008 0.16892993 0.10647998 0.0833981 -0.10739834 -0.051863834 -0.055903494 0.17099208
0.02258769 0.017746137 -0.089466356 0.076928966 0.031204412 -0.11764585 0.22385441 -0.13776168
0.15855412 -0.008569739 0.019178726 -0.0777659 0.09796299 -0.0089406995 -0.05082289 0.034834772
0.07354883 -0.1499618 0.23117948 -0.050742246 -0.038634334 0.07024448 -0.09781794 0.020106433
0.114744104 0.2674986 -0.12822221 -0.081705466 0.05816467 -0.017209943 0.1012584 0.23275311
0.11320571 0.077372074 -0.22543123 0.035047174 0.11603413 0.07241056 -0.057752542 -0.06553453
-0.033434212 0.000460903 0.057612926 -0.17658247 -0.0085922135 0.04002723 -0.015910355 -0.08230396
-0.03509099 0.040380497 -0.14619601 0.057018857 0.037565693 -0.24173304 0.063175045 0.1311923
-0.002355164 -0.18547507 -0.022368992 -0.049590014 0.11629555 0.045342147 0.033692177 0.023235373

b1 f4 [64]
00000000: 08dc b0bd 4776 debc 4ff6 d03d 11c1 b63d
00000010: 14ff acbd 68ba 513d ac0e b73d 56d0 213d
00000020: 26cc 20be 1be2 8cbd 0e55 823d 502a 8d3e
00000030: 891b 0f3a 983b c8bc bfec b9bd 0a62 df3c
00000040: 2242 903d cf17 00bd 07a0 073e 5192 afbd
00000050: 8fe6 bdbd c588 8dbd 43fb 653d 274e da3d
00000060: eafe cc3d 87b8 1b3c 8599 17be 66b8 15be
00000070: 37ec 43bd b465 0e3e 2a21 a5bb 0bce 9d3d
00000080: b365 983d 7a91 023d d48c 9dbd 4799 bb3c
00000090: 12dc 3c3c 305c 80bd 30f0 d83c b68d ab3d
000000a0: 1e12 033d 35f7 cf3d a2b1 14bd f261 c7bd
000000b0: f390 8f3d 8884 a6bc e6de 043e 173d 5dbd
000000c0: 32a0 7c3d 84d4 363c ba9d 1b3d 43c4 b7bc
000000d0: 3f6c 36be 4bd1 c33d 678f abbd fb8d a03d
000000e0: 9f38 9e3c 5d55 173d cc5e 163e 6b2e 1dbe
000000f0: 7d03 50bd e8b2 773d 39e8 01bc 2882 78bd
-0.08635718 -0.027156008 0.1020323 0.08923543 -0.0844709 0.05120316 0.08938345 0.039505325
-0.15702876 -0.06879064 0.06363879 0.27571344 0.000545912 -0.024442479 -0.09078359 0.027268428
0.07043864 -0.031272706 0.1324464 -0.085728295 -0.09272491 -0.06910852 0.056147825 0.106594376
0.100095585 0.009504444 -0.14804657 -0.14621124 -0.047832694 0.13905984 -0.005039354 0.07705315
0.074412726 0.03187702 -0.076928765 0.022900237 0.011527078 -0.06267583 0.026481718 0.083766386
0.0319997 0.10154573 -0.036302216 -0.097354785 0.07010069 -0.020326868 0.12975654 -0.054013338
0.06167621 0.011159066 0.037992217 -0.022432452 -0.1781473 0.09561404 -0.08376961 0.078395806
0.019314108 0.036946643 0.146846 -0.15349738 -0.050784577 0.060473353 -0.007928901 -0.060671

w2 f4 [64, 64]
00000000: 6caf 3f3d 9fa2 e33d 082b 053c e6cf ce3d
00000010: f31f 52bd a924 74bc c398 5fbd 38d7 a4bd
00000020: a805 5abd b189 e8bd 48ec 403e 2ab3 fabc
00000030: f29a 41bc 6cf5 89bb 0670 c43c 6ac3 073d
00000040: c3c2 c63d 09f4 3c3e ce56 ac3c 3cf4 d6bd
00000050: dabd 0b3e 37b9 6e3d 26af 61bc 8a59 ec3d
00000060: 6ff8 883c 9b51 b2bd de47 5f3c a990 c13d
00000070: 67c1 eb3d 7b35 b13d b76b b2bc 0615 19bb
00000080: 1672 cebd a371 e4bd 7d01 ac3c 1251 df3c
00000090: 06c4 f73b 3c9b b53d b09d 2e3e 7303 0c3e
000000a0: bfb0 883c 940a 3b3e b93d dcbd fb29 5ebe
000000b0: 7cb1 42be a54e d33d 523b 193e 0a8b 403c
000000c0: dd71 ec3c 26a6 853d 1294 e7bb e585 b83d
000000d0: 9287 d4bd 93e8 febb 50ab ef3d bd03 66bd
000000e0: b90a 41bd 2288 153e 1f23 113e 995c e33a
000000f0: aae9 773e d4e2 193d 7521 aabe 935e 5a3b
00000100: 4a68 323d 2c80 46bd bfb8 663d 3f8e 883c
00000110: d216 8d3d d5af 20be b48a a9bc f1ac 9e3d
00000120: dad5 3f3e 290e 5bbd 5a85 533d 0333 543d
00000130: a9e5 8a3d eadd dc3c 5b18 6b3d bdc6 443e
00000140: 25cb f63d 66d9 113e 0e03 da3d 939e d6bc
00000150: a098 41be ba3a 6cbd d63e 5bbd e50b 3ebe
00000160: a039 9b3d 7b40 23bd d660 a73d 7285 5dbd
00000170: bd7a b639 cf47 b63d d29b 6bbd 74be 523d
00000180: 2e4a 33bd a15b d4bd 72cf e0bd efd4 48bc
00000190: b607 683d 20e0 26be 6242 05bd 0977 d83d
000001a0: 96f8 1abd 1f05 623d 6675 693d 8514 b2bd
000001b0: caff 74bd 43c0 a23d 67a2 c2bd e428 c8bb
000001c0: efa6 8d3e d2e4 70bd 6120 a7bc 695d c73d
000001d0: 8889 f1bd eef0 e83a 5fd5 4b3c 036c a53d
000001e0: b1b2 f53d 364e fabd 7233 8abe 38bc 60bd
000001f0: 214c 493c b264 2dbe 2777 69bd e019 a6bd
00000200: 7fd4 acbd 1222 8a3d 604f 043e 6052 b73b
00000210: de49 78bd 3189 8a3e c04a 083e 7c70 33be
00000220: 7c0e 053e 08c7 fdbd ce25 873d 823d 38bc
00000230: d081 92bd fe48 a63d 383d 6dbd 2dda 01be
00000240: fd7a 033c 19ea 133e 785b d7bd 8507 2d3e
00000250: c5ac 3dbb e18c 36be 7f21 203e bee6 4d3d
00000260: a04b 663d ff11 86bc 9212 463e c844 093e
00000270: 851e f33d d814 e43d fd18 b73d 1238 0e3e
00000280: 1cd9 d1bd caae 32be 636e dcbd 368d f6bd
00000290: 661b e23d 2ac5 23bd 99c9 0dbd 2f3d 44bd
000002a0: f0ec 24be 222c 583d 397d 81bd 75bd d7bd
000002b0: ecbb dfba 6c65 413e 2626 08bd 7f55 063e
000002c0: 2d9d ebbd 5915 05bd ee38 16be 7d5e 67bd
000002d0: fd26 8fbd 83c7 d23c 1c12 12be ebe6 0cbd
000002e0: bc8b cd3d 1290 42bc fe5a 133e 04e6 8fbd
000002f0: 9c19 963e 444b 26be c50a 82bd c91c 1d3d
00000300: ccf5 ebbc ac7c 5fbd 897e 88bd 8315 2d3d
00000310: 19ef 2ebe b2a3 cc3d 0555 f73b 1e04 f83c
00000320: aa96 363c 200f d3bd c467 21bc dcd3 91bd
00000330: b68e 813b 223b a23d 7bd9 153e 3e19 823c
00000340: d02a 37bc edc2 87bd 6f41 d63d a0e1 48bd
00000350: 2102 e3bd 7813 0c3e 451b d2bd b76d a53e
00000360: 7e59 3a3e 0990 d1bd 1d18 07bd 5acf 273e
00000370: 1ed3 8a3c fb6c 4c3d a8bb 6b3d aa82 d03d
00000380: 2762 573e 7d84 22bd d08a d43b 3a1c 7d3d
00000390: 3d39 243e fb33 743d 74d2 903d bfa7 103e
000003a0: bd96 72bd ff9e 793e 43d2 f53d 5c8c 9b3d
000003b0: 23cf 1a3e 3f2f cd3d e2bf 6b3d 8b89 8fbc
000003c0: 6c71 c13d 6bb6 713d 35ef 7bbd c4a6 b0bd
000003d0: d932 05bd 8559 a4bd ff24 75be a495 dcbd
000003e0: cade 1e3e a826 443d 0af6 afbd 5651 81bd
000003f0: b93c c6bd f7b4 463b 99d8 413d 290d c03d
0.046798155 0.11115002 0.008127935 0.10098247 -0.0513 -0.014901319 -0.054589044 -0.08048862
-0.05322805 -0.113543876 0.18840134 -0.03060301 -0.011816727 -0.004210165 0.023979198 0.033145346
0.097051166 0.18452467 0.021037485 -0.10495803 0.13646641 0.058282103 -0.013774669 0.11540516
0.016720025 -0.08706971 0.013627974 0.0945142 0.11511498 0.08652779 -0.021779878 -0.0023358478
-0.10080354 -0.11154487 0.020996803 0.027260337 0.0075612096 0.08867499 0.1705234 0.13673191
0.016685842 0.18265754 -0.1075396 -0.21695702 -0.19013017 0.10317735 0.14964035 0.0117518995
0.028862888 0.06525831 -0.007067212 0.09009913 -0.103774205 -0.00777919 0.11702597 -0.05615591
-0.047129367 0.14602712 0.14173554 0.0017346322 0.2421023 0.037569836 -0.3322865 0.003332053
0.04355649 -0.048462078 0.05632853 0.01666939 0.06889118 -0.15692075 -0.020696022 0.0774783
0.18733922 -0.0534803 0.051640846 0.05180646 0.067820854 0.026961286 0.057396274 0.19216438
0.120504655 0.14243087 0.10645114 -0.026198661 -0.18905878 -0.057673194 -0.053526722 -0.18559225
0.075793505 -0.039856415 0.08172767 -0.05408234 0.00034805192 0.08900415 -0.05752165 0.05145116
-0.043771915 -0.10369039 -0.10977067 -0.012257799 0.05664798 -0.16296434 -0.03253401 0.10569579
-0.037834726 0.055180665 0.056996725 -0.0869532 -0.059814252 0.07946827 -0.09503632 -0.00610839
0.27666423 -0.05881197 -0.020401182 0.097346134 -0.1179381 0.0017771998 0.012441008 0.08077242
0.11996973 -0.12221949 -0.26992375 -0.054867 0.012286217 -0.16932943 -0.0569984 -0.08110404
-0.08438968 0.0674478 0.12920904 0.0055945367 -0.06061732 0.27057794 0.13309765 -0.17523378
0.12993807 -0.12391478 0.065990075 -0.011245133 -0.07153666 0.08119391 -0.05791971 -0.12680884
0.008024928 0.1444477 -0.10515493 0.168974 -0.002894209 -0.17827179 0.15637778 0.05026888
0.056224465 -0.016366003 0.19343022 0.13405144 0.118710555 0.11136788 0.08940313 0.13888577
-0.102464885 -0.17449489 -0.10763242 -0.120386526 0.11040382 -0.039982952 -0.034616087 -0.04790991
-0.1610601 0.052776463 -0.063227125 -0.10534183 -0.0017069555 0.18886346 -0.033239506 0.13118552
-0.11504588 -0.03249106 -0.14670154 -0.056486595 -0.06989858 0.0257299 -0.1426472 -0.034399908
0.10036418 -0.011875169 0.1439018 -0.07026294 0.29316413 -0.16239649 -0.063497104 0.03835753
-0.028803729 -0.054562256 -0.0666476 0.042256843 -0.17083396 0.0999216 0.007547977 0.0302754
0.01114432 -0.10305619 -0.0098514 -0.07120487 0.00395378 0.07921435 0.14633743 0.015881177
-0.011179641 -0.06628976 0.10461699 -0.049043298 -0.110843904 0.13679302 -0.102591075 0.32310268
0.18198201 -0.10232551 -0.03298198 0.16387692 0.016946372 0.04990862 0.05755201 0.10181172
0.21033536 -0.039677132 0.0064862743 0.061794497 0.1603746 0.059619885 0.07071391 0.1412649
-0.059225786 0.24377058 0.12002995 0.07595131 0.15118079 0.10018777 0.05755604 -0.01752164
0.09445462 0.059011858 -0.061507422 -0.08625558 -0.032519195 -0.08024887 -0.23939894 -0.10770729
0.15514675 0.047888428 -0.0859185 -0.06314342 -0.09679551 0.0030320266 0.047325704 0.0937751

b2 f4 [64]
00000000: 255a 6e3d c434 55bb e04c 1e3d 4acd 483e
00000010: ded9 8abc e9a8 87bd 6401 3a3c adb8 9fbd
00000020: ea58 b23d a34c 023c 97db cfbd d9fd d1bd
00000030: 79f1 b0bd e9ae bf3d b9a0 0bba 6395 f238
00000040: 01ae 893d 2062 bc3a 241c 3ebe d9b2 263d
00000050: f458 6bbb 6351 2dbe d90e d0bd 04ba 68bd
00000060: ee7c 74bb 07e0 413e 123b 61bd 6f1f 9ebd
00000070: 90ae 48bd aedf 32bc 329f e93c 94fc 9dbd
00000080: d9ad e4bd a262 793d 9525 06bc 3620 983d
00000090: b92e d0bd 1cc1 1fbe 6497 d13d b66e a5bd
000000a0: 0d29 62be 3fb2 64bd a740 e43d 7712 c53d
000000b0: 8d47 d63d 48d7 2c3d d05a 27be c17a c83c
000000c0: 28da a43d 0986 0c3e 4fa8 a4bc e8ce d9bc
000000d0: 4931 b43d 5995 bfbd 5c89 b4bc ad39 653d
000000e0: 41c8 bd3d b386 f1bd 2959 9dbc 9814 853d
000000f0: 555e 613c 5558 aa3d 7a4a f63d fe6e a5bd
0.058191437 -0.0032532671 0.038647532 0.19609562 -0.01694959 -0.06624014 0.011352871 -0.07798896
0.08708365 0.007952842 -0.10149305 -0.10253496 -0.08639807 0.09359533 -0.0005326379 0.00011567285
0.06722642 0.0014372505 -0.18565422 0.040697906 -0.0035911174 -0.16925578 -0.10159082 -0.056818023
-0.003730591 0.18933116 -0.054987974 -0.07720839 -0.0489946 -0.010917587 0.028518293 -0.07714191
-0.11165971 0.06088508 -0.008187671 0.07428019 -0.10165162 -0.15601009 0.102339536 -0.08077757
-0.22085972 -0.05583405 0.11145144 0.096226625 0.10462866 0.042197496 -0.16343236 0.024472596
0.080494225 0.13723005 -0.020099787 -0.026587918 0.08798463 -0.09354658 -0.022038154 0.055963207
0.09266711 -0.1179327 -0.019207554 0.064980686 0.013755401 0.08317629 0.12025924 -0.08077811

w3 f4 [64, 64]
00000000: 9488 d13a ea7b a1be 46da 23be febb 5a3d
00000010: f873 e6bb 2fbe 443d d59c 7f3d 9c0a 5fbc
00000020: fb5a 453c 6bfb d1bb dafe 143d 6098 2e3e
00000030: 7509 c0bd b29d 4dbd 0067 883d 2f01 bd3d
00000040: fa27 64bd b8ca 5ebd 6fe3 0b3d e51b 0e3e
00000050: 150e 8c3d 896f 473e 86ff 833d 414f 9dbc
00000060: e17a a5bd e588 d0bd 0d83 9ebd 19f2 c23c
00000070: 03d6 3f3d 1c08 71bd 709e 493e 485e bbbd
00000080: 07d6 2a3e 0c53 b4bd 393c 47bc 68c5 0cbd
00000090: 0f6d c9bd d376 0abe 3c71 27bd a72c ea3d
000000a0: 02e1 ed3c 0e5e 13be 5241 61bd 23e4 8c3d
000000b0: c088 4bb9 085a 533d b521 98bd e4ff d83c
000000c0: 302b 473e 0832 10bd 85ae cebd 4ed1 383e
000000d0: 755a 3cbc 6855 a3bd 6d29 00be e0d8 9c3d
000000e0: 468c 42be 137f b0bd 4541 67bd af3c cc3d
000000f0: f086 8bb9 6b86 fbbc 925a 7aba 61ab ba3d
00000100: def9 17bd b1df b03d 0c4d 3939 07be b23d
00000110: dd9c 7b3d 9add 0bbe 6420 de3d 21ce ca3d
00000120: 816a bbbd b181 083c e897 61bd 4057 023e
00000130: 8249 b4bd e17b ce3d 58af 2c3d c9fd 103e
00000140: 7e1a 1dbe 6cec 173e 90af 07b9 95fc d6bd
00000150: aa56 f53d 0ded 4bbe 2ce2 193d 96a4 0bbe
00000160: 10f1 52bd 9b24 ba3d d3d3 c93c 06d1 f4bb
00000170: 9976 503d 744f 02be ee93 183e 54ca ef3d
00000180: 7a30 a43c 9c43 f7bb bf3d c03d 10c9 dbbc
00000190: e6ef 4a3b dedd 68be 1da4 263d 77be 393b
000001a0: 0fe5 aebd e4c5 bb3d ad4f 033d 5497 ed3d
000001b0: 2786 803c 963d a3bd 8c05 1abd 644a 2cbd
000001c0: e08b 7c3c 4eab 7d3d 40d5 54bb 0409 6fbd
000001d0: 4839 b9bd c673 163c 40fc 0ebe 4d8b 4b3d
000001e0: 8e09 8d3c c644 afbb 4041 4ebd 9182 903d
000001f0: e373 d03c 8e15 0e3e 3e4b 6b3d 2a3f 9c3d
00000200: 8093 ad3d defd 233e 4fa5 7cbd f0c1 acbd
00000210: 033e 30bd 0536 54be 9afd 503c 9ac2 b83c
00000220: 93e6 f0bd bee8 983c c9a9 d53d bdc6 bf3c
00000230: caeb 2f3d 4245 f13d 3089 6b3e da24 743d
00000240: ba69 743e 5c85 23be 65cd 143e 8240 c73c
00000250: 93b7 363d 63ce 89bd 8225 633b f154 b9bc
00000260: 58e3 3ebd 8482 dd3d 42cc 6fbc 0f4e 53bd
00000270: ac1a c4bd 2a86 7a3e 9aa5 95bd 8996 cebc
00000280: 6fcf 293d f46a e63d f7c4 003e 7ed8 d2bc
00000290: a16d 09be 3974 9e3d 0525 9cbd 7525 98ba
000002a0: 32bd a43d 8edd 763d 3c35 c43c d9be bd3d
000002b0: 5ec1 12be ec18 9e3d 6c87 4ebb 286c 773d
000002c0: 7f23 ca3c 4ec2 1fbe c6de 8d3d 3506 f23d
000002d0: 275f 5bbd 6cff f83d e636 b939 9ca3 3ebd
000002e0: 44a1 9a3d 26e3 13be b5da d33d aecd 46be
000002f0: 7e34 0abc 611c 15be 0774 b03d 8cb7 d73d
00000300: abe8 89bd 1e50 13be 359a 113c a712 0b3d
00000310: 2cec 883d 6759 063e aff8 c53b 31ef d3bc
00000320: 20de 333c a2aa 823c 54dd 38bd 6159 a8bd
00000330: 8fc6 dabb 0c4c 8a3d 329d 2bbe a37f 72be
00000340: 41dc e9bd 94b1 9bbd 7ca0 02bd a6e1 373b
00000350: 1d68 823d 441b 463d a063 ae3c 2672 e2bd
00000360: a269 0c3e 260c e3bb ea6c 5d3d 32e3 483e
00000370: 359f 20bd b0a2 b6bd 2fac c03d 8383 b93c
00000380: 4240 df3d bf56 d13d 8a00 1c3c c1c1 d0bd
00000390: 9ca9 c6bc 3020 2cbb bd23 9ebe 209e 41bd
000003a0: bf9b 24be 3149 973d 05a6 11be fe7d ccbc
000003b0: 6a45 00be a044 bf3c 5285 1cbe c7c4 c13d
000003c0: c375 9ebb d991 83bd eee0 1f3e b586 bdbd
000003d0: 8724 053d 579b a6bd f6af edbd d470 cc3d
000003e0: 0ddf 133d 0ecc 3e3d 0b74 b1bc a85e 403e
000003f0: e0a3 cbbd fdc0 be3d 4128 89be eed7 9e3d
0.0015986138 -0.3153985 -0.16001233 0.05340194 -0.0070328675 0.048032936 0.062405426 -0.013613369
0.012045617 -0.006408145 0.036375858 0.17050314 -0.09376804 -0.050199218 0.06660271 0.092287414
-0.055702187 -0.054392546 0.034152444 0.13877828 0.068386234 0.19476141 0.064452216 -0.01920283
-0.08080078 -0.101823606 -0.0773984 0.023797082 0.046834957 -0.058845624 0.19689345 -0.09148842
0.16683207 -0.088049024 -0.012160354 -0.03436795 -0.098352544 -0.1352189 -0.040879473 0.11434298
0.029037956 -0.14391348 -0.054993935 0.06879451 -0.00019410532 0.051599532 -0.07428304 0.026489206
0.19450068 -0.035203964 -0.10091881 0.18048593 -0.011496176 -0.07975274 -0.12515803 0.07658553
-0.18998823 -0.086179875 -0.05645873 0.09972512 -0.00026612682 -0.030703744 -0.0009550239 0.09114719
-0.037103526 0.08636416 0.00017671677 0.08727651 0.061428893 -0.13658753 0.10846022 0.09902597
-0.091511734 0.008331702 -0.05507651 0.12728596 -0.08803083 0.10082222 0.04215941 0.14159311
-0.15342137 0.14836282 -0.00012940005 -0.10497395 0.119794205 -0.19914646 0.03756921 -0.13637003
-0.051499426 0.09089013 0.024637138 -0.0074712066 0.050894354 -0.12725621 0.1490018 0.11708513
0.020042647 -0.0075459015 0.09386777 -0.026829273 0.0030965745 -0.22740886 0.040683854 0.0028342286
-0.08539783 0.09168604 0.032058407 0.11601129 0.015688969 -0.07970731 -0.037602946 -0.042063132
0.015414208 0.061930947 -0.003247574 -0.058358207 -0.09044129 0.009182876 -0.13963413 0.049693394
0.01721647 -0.0053487746 -0.050355196 0.070561536 0.025445884 0.1387541 0.057444803 0.07629235
0.08475399 0.16014811 -0.061681088 -0.08435428 -0.04302789 -0.20723732 0.012755776 0.02255373
-0.117627285 0.018665668 0.104327746 0.023410195 0.042949475 0.11780788 0.23001552 0.059605457
0.23868456 -0.15968841 0.14531477 0.024322752 0.044608664 -0.06728818 0.0034659808 -0.022623511
-0.04660353 0.108159095 -0.014636101 -0.051588114 -0.095754 0.24465242 -0.073069766 -0.025218265
0.04145759 0.112508684 0.12575136 -0.025737997 -0.13420726 0.077370115 -0.076242484 -0.0011607843
0.08043899 0.060269885 0.023951165 0.09264917 -0.14331576 0.07719597 -0.0031513823 0.06040588
0.024675129 -0.15601465 0.06927256 0.1181759 -0.05355754 0.12158093 0.00035326852 -0.04654275
0.0755029 -0.14442119 0.103444494 -0.19414398 -0.008435367 -0.14561607 0.086158805 0.10533056
-0.06733831 -0.14386031 0.0088868635 0.033953335 0.06685671 0.13120042 0.0060416083 -0.025870891
0.010978252 0.015950505 -0.04513295 -0.08220173 -0.006676502 0.06752786 -0.16759184 -0.23681502
-0.11418963 -0.0760223 -0.03189133 0.002805808 0.06367514 0.048365846 0.02128774 -0.11056928
0.1371217 -0.0069289384 0.054058947 0.19617918 -0.03921433 -0.08917749 0.094078414 0.022645717
0.10900928 0.10221624 0.009521613 -0.101932056 -0.024250798 -0.0026264302 -0.3088664 -0.04726994
-0.16075037 0.07387007 -0.14223488 -0.024962422 -0.1252648 0.023348153 -0.15285233 0.094613604
-0.0048358156 -0.064243026 0.15613148 -0.09254209 0.03250554 -0.081350975 -0.116058275 0.09982458
0.03610139 0.04658132 -0.021661779 0.18786108 -0.09943366 0.09314153 -0.26788524 0.07756029

b3 f4 [64]
00000000: 01fd 9dbd d2d1 173d ee10 d6bc 72b3 11be
00000010: 2e03 98bd 1db3 efbd 0312 ce3c 0157 9abd
00000020: 72d2 21be e4b8 ea3d 8404 0b3e 29ca ea3c
00000030: 448a 39be ccf0 91bc 7e72 d6bd 04c7 47bc
00000040: 8d63 ba3d 30ff 6fbd 1aae 3fbe 6eec 18bd
00000050: b3b6 123e 1cb7 e5bc b03c 3d3e 6b41 b83b
00000060: ff47 aebd 0a4d 53bd 3602 28be da48 1a3c
00000070: f2e2 5f3d b0c3 c1bd d964 2b3e b0d6 4cbd
00000080: 7e79 b1bd 512e 943d e064 073e e259 2fbe
00000090: 837c adbd 32e0 473d f193 0d3b 1ba7 803d
000000a0: 8904 c63c d64c 23be 9fb5 66bd 3d79 ee3d
000000b0: 9e74 16bd bbb1 b9bd 9028 ac3d a77e 2c3d
000000c0: 9535 2bbe 782c 3d3e 7e90 493d 3e4b 0dbd
000000d0: e8ee 0c3d e1f4 0c3e e7c9 c1bd 38e9 133e
000000e0: b56a f53d 3390 a83b e15b 93bd cd6b e53b
000000f0: ea2f 58bd 20fb d03c d2f2 6cbd de84 c83d
-0.07714272 0.037065335 -0.02613112 -0.14228609 -0.074224815 -0.11704085 0.025155073 -0.07536126
-0.15802935 0.11461046 0.13575941 0.02866085 -0.1811915 -0.017815016 -0.104710564 -0.012193445
0.09101019 -0.058592975 -0.18718758 -0.037334852 0.14327507 -0.028041415 0.18480182 0.005623033
-0.08509826 -0.051587142 -0.16407093 0.009416783 0.05465979 -0.094611526 0.16737689 -0.05000943
-0.08665751 0.07235397 0.13222075 -0.17124131 -0.08471014 0.048797794 0.0021603073 0.06281873
0.024172084 -0.1594728 -0.05632555 0.11644218 -0.03673231 -0.090671025 0.08406174 0.042112973
-0.16719659 0.18473995 0.049210064 -0.034495585 0.034407526 0.13765289 -0.09462338 0.14444435
0.119832434 0.005144143 -0.07195259 0.0070013762 -0.05278007 0.02551037 -0.05784876 0.097909674

w4 f4 [64, 64]
00000000: f02c d0bd fea7 dbbc 402f 78be 8453 95bd
00000010: eaa7 663d d965 e2bd 2ec3 cabd 4b20 90bd
00000020: 88e3 54bd a8fd 8bbd 4ceb 36bd 56f1 e63c
00000030: d22b be3c a779 123d b307 b2bd b76c ac3d
00000040: 8bd3 0c3c 5428 fa3d a1ee 493c 515b 96bd
00000050: 55b4 aabc 9a8b 443d 6059 4ebe 78a0 89bd
00000060: 7bae 763d 5161 abbd eaec 703d f6c0 0bbc
00000070: 45e2 6d3c 047a 013e 5ba1 15be 385f b4bc
00000080: 902c 7b3d a87a 7bbd f46a a3b9 3423 c33d
00000090: 8c41 88bd 784f bd3d 62e2 ca3d 0ded 033d
000000a0: 409f 403c f511 adbd ed06 92bd 902c 0b3e
000000b0: eaba d13d 8829 583d b2ec 0d3e 1d86 97bd
000000c0: 75ee e63d c1a8 e83d f6c4 5d3d 1ea0 4f3d
000000d0: 9ca0 06be 67b1 8bbd 7864 debd 48c1 0e3e
000000e0: 28f7 bd3d d062 6bbd b9e4 193c 1872 6fbd
000000f0: a8c7 3e3e 5098 58bd fefa 763c 5a54 b53c
00000100: 8cfd fc3d 589d 163e 335a 293d a21a 5bbd
00000110: da8a 52be 5200 f03d 8a77 0b3e e089 0e3e
00000120: 6139 b8bd 4929 b3bd 554b 52bd b9da e43d
00000130: 93f0 4a3c 4649 993b 576f f43b 76eb dcbd
00000140: 1847 babd b5f3 063c 83dc a5bb 1741 3e3d
00000150: 785d 1fbd 096b 0ebc 8dbc 5e3c ef76 473d
00000160: 7bf5 86bb 4105 cebd 8f24 0abe b770 f33d
00000170: 89ee a9bc 3d80 06bd d038 ce3a 4c43 92bd
00000180: cd69 bebd 5295 59bd 57dd 9bbd 37d5 0e3d
00000190: b343 d3bc 189e 6fbd 417e afbd ae42 7cbe
000001a0: 9988 123b 1d6d b2bd 9f94 1b3d e8f4 153e
000001b0: c137 3a3c c7a8 02bd 7f34 4fbd f12a c93d
000001c0: c538 f2bd cf5c a03d 80ad a53c c2e9 843d
000001d0: 08df 043e d845 1c3e 796f d83d 7f10 943d
000001e0: 9d70 c33d dcc0 c7bd dd1b 4e3d 74f8 de3d
000001f0: 19d3 803d 9b21 3bbe 9110 ecbc c0c0 05bd
00000200: 2439 0fbd 7890 573d c338 dabd dd11 8abd
00000210: f860 02bb 6b6d 26bd 9213 0abe 54e4 88bd
00000220: 416c 6cbc b155 193e 4292 88bc a1cc 2ebd
00000230: 9776 42be af05 2b3c 741b 02be 702e cfbd
00000240: b743 903d 446d d1bb b409 463e c4f6 eb3d
00000250: 40d5 a8bc 730b 3cbe c165 273d d0b9 983d
00000260: 5b69 30be 565b 353d 23ad 3dbd 8b9d 853d
00000270: 484e a43c 421d b73c 270b 71bd b9c1 8abc
00000280: 20ec 7c3d 61a6 29be 9d0d d03c a84b 42be
00000290: 1b04 693d 2109 10bd d80e f2bd 2792 063e
000002a0: 2ba2 bebc 5cea 15be 30c9 743d fd95 163e
000002b0: ffa9 52bd b25a 19be cc1a c23d eb3d a63d
000002c0: 651e c43d 047f d4bc 7d82 efbd 2552 a83d
000002d0: b60f f1bd ac07 7bbd c947 393d dd46 a33d
000002e0: 9268 fe3d 30d5 8abd bc6e 083d 1545 623d
000002f0: 579d 0ebd a2d8 03be 0584 513d 5ced 44bd
00000300: 6e09 84bd c762 73bd 7e81 8e3c 4e3b 7ebc
00000310: 2c24 be3d 9744 0a3e f487 8e3d 707d 3cbe
00000320: 4f00 53bc 328c 94bc 1b42 9b3d 2afb d83d
00000330: 68f4 59bd 0ef1 003e 4721 fa3c fcbd 23be
00000340: f1ca b13d 1b5c e7bc 86cd 193e 02ac ce3d
00000350: 1af5 39bd 650f 1a3d 0627 493d c2cb 53bd
00000360: 204b 70be 1f61 d03d eaa1 55be f10e 013d
00000370: 1cb9 5f3e 2ac8 f13d d559 a7bd 8a5e 1ebe
00000380: ac45 3f3d 3761 8bbd 50a0 3c3e 608e 1b3b
00000390: f44d 113e 1dcc 1ebd 2771 c33d 66a5 2b3e
000003a0: c034 63bd 695d 09be 4c1e d53d fa56 f8bb
000003b0: 0552 183e a458 08bd a82b e13b 4ed9 2f3e
000003c0: b496 25bd 9442 37be da47 3abe 66d3 5d3d
000003d0: 1149 813b d6bc 0fbe ce40 05be 64e0 9bbd
000003e0: a1c7 063e 1a25 5cbe 361b e53c a092 673c
000003f0: cc9d a23d a022 5bbd 9dbf f1bd 298c bf3d
-0.10164821 -0.026813503 -0.24236774 -0.0729132 0.05631248 -0.11054582 -0.09900509 -0.070374094
-0.051974803 -0.068354905 -0.04465799 0.02819125 0.023214255 0.035760548 -0.08692875 0.08419173
0.008595358 0.12214723 0.01232496 -0.07341636 -0.020837942 0.047984697 -0.20151281 -0.0672006
0.06022499 -0.08368171 0.05881969 -0.008529892 0.014519279 0.12644202 -0.14612333 -0.02201806
0.061321795 -0.06139627 -0.0003116947 0.09528199 -0.06653127 0.09243673 0.0990646 0.03220849
0.011756718 -0.08450691 -0.07130227 0.13591218 0.10240729 0.052773982 0.13859823 -0.07398627
0.11275951 0.11360312 0.054142915 0.05068981 -0.13147205 -0.06820946 -0.10859007 0.13940918
0.09275657 -0.05746728 0.009392911 -0.058458418 0.1863085 -0.05287963 0.01507449 0.022134949
0.12353048 0.1470846 0.041345786 -0.053492196 -0.2056078 0.11718811 0.1361982 0.13919783
-0.08995319 -0.08748109 -0.051341373 0.111745305 0.012386459 0.0046779243 0.007459562 -0.10787098
-0.09095591 0.008236815 -0.0050616874 0.046448793 -0.038907498 -0.008692511 0.013594759 0.04869741
-0.004118619 -0.10059596 -0.13490508 0.11886733 -0.020743625 -0.03283714 0.0015733484 -0.07141742
-0.09297524 -0.05312092 -0.076105766 0.034871306 -0.025789117 -0.05850038 -0.08569003 -0.24634811
0.002235925 -0.08712218 0.037983533 0.14644206 0.011365832 -0.03189924 -0.050587174 0.098226435
-0.11827234 0.07830202 0.020224333 0.06489898 0.12975705 0.15261018 0.10568137 0.07229709
0.09542964 -0.09753582 0.05031954 0.108872324 0.06290264 -0.18274538 -0.028816493 -0.032654524
-0.034966603 0.05262801 -0.10655358 -0.067416884 -0.0019894224 -0.040631693 -0.13484028 -0.06684175
-0.014430107 0.14974095 -0.016671304 -0.042675618 -0.18990551 0.010438367 -0.12705785 -0.10116279
0.070441656 -0.0063911993 0.19339639 0.11521676 -0.020609498 -0.18363743 0.040868524 0.07457316
-0.1722769 0.044276558 -0.046307694 0.065241896 0.020056859 0.022352818 -0.058848526 -0.016938077
0.061748624 -0.16567375 0.025397116 -0.18974173 0.05688868 -0.035164956 -0.118192375 0.1314169
-0.023270687 -0.14640182 0.05976218 0.14705653 -0.051431652 -0.14976004 0.09477767 0.08117279
0.0957611 -0.025939472 -0.116948105 0.08218793 -0.11770575 -0.061286613 0.045234475 0.079725005
0.12422289 -0.067789435 0.03330873 0.055241663 -0.03481802 -0.12875608 0.051151294 -0.048077926
-0.06447111 -0.059420373 0.017395731 -0.015517069 0.09284243 0.13502727 0.06959525 -0.18407226
-0.012878492 -0.018133257 0.07580968 0.10594781 -0.0532116 0.12591955 0.030533446 -0.15990442
0.08681286 -0.028242161 0.15019807 0.10091402 -0.045399763 0.037612338 0.04910948 -0.05170799
-0.23466158 0.101747744 -0.20862547 0.03150839 0.21847957 0.118057564 -0.08171431 -0.15465751
0.046697304 -0.06805652 0.1842053 0.0023735985 0.14189893 -0.038768876 0.095430665 0.16762313
-0.05547023 -0.1341454 0.10406169 -0.007578728 0.14875038 -0.03328766 0.0068716593 0.17172739
-0.040426925 -0.17896491 -0.18191472 0.054156683 0.003945478 -0.14036879 -0.13013002 -0.076111585
0.1316209 -0.21498528 0.027967077 0.014134079 0.079402536 -0.053499818 -0.118041255 0.09352905

b4 f4 [64]
00000000: 34d2 78bd 35d9 02be 5146 953d fa0f f93c
00000010: 9948 093e 892c 9fbd 2871 15bd 2096 7bbe
00000020: ec1e fe3d 3b16 20be bcd4 28bd 90a4 c1bc
00000030: 032f dbbd 1934 0c3d 2071 803c 42fe 54be
00000040: c949 873c d015 2fbe db48 063c 269f 34be
00000050: ba08 9c3d ec48 083c 46e0 14be db2a 8c3d
00000060: 9020 4b3e 1667 04be 9b0d 093e 5f68 bd3c
00000070: 4bc7 7a3d ce4a d43c a563 2a3e e860 0d3e
00000080: 74d7 21bd cdfd 45bd 19c6 e0bd c46e 39bd
00000090: 4c45 1dbc 49f5 25bc 5703 283e 4994 523c
000000a0: 4cd3 1b3e 1225 4ebe 8df6 0dbe 018e 0ebd
000000b0: eaa2 1e3d d8d8 743d 9d13 17bd 8350 133e
000000c0: 12b1 4b3d efa3 a4bd 3920 b43d fbf5 37bd
000000d0: 1dff a43d 8cda ab3d c838 52bd 8837 74bd
000000e0: daef 793d 20a8 903d 272a 8b3d e1c4 a0bd
000000f0: d2a8 003e 2488 a8bd 5ccf d13d a626 813c
-0.06074734 -0.1277817 0.072888024 0.030403126 0.134066 -0.07772166 -0.036484867 -0.24568987
0.12408242 -0.1563348 -0.041218504 -0.02363804 -0.10702326 0.03422937 0.015678942 -0.20800117
0.016514676 -0.17098165 0.008196081 -0.17638835 0.07618852 0.008318167 -0.14538679 0.068441115
0.1983664 -0.12929949 0.13384096 0.023121057 0.061225217 0.025914576 0.16639574 0.13806498
-0.039512113 -0.048337746 -0.10975284 -0.04527165 -0.009599041 -0.010129281 0.16407524 0.012852737
0.15217322 -0.20131329 -0.13863583 -0.034803394 0.038729586 0.05977711 -0.03688394 0.14386182
0.049729414 -0.0803908 0.087952085 -0.04491232 0.080564715 0.08391294 -0.051323682 -0.05962327
0.061019756 0.07063317 0.06795149 -0.07850052 0.125644 -0.08229092 0.10244629 0.0157655

w5 f4 [64, 64]
00000000: 7ebb 163d 1c89 4e3d fb76 b0bd 35c2 253e
00000010: 6ada 643d 7816 4ebe 1f0b 223e 1b50 5f3d
00000020: bbf5 bc3d 80be 7abe f000 233d a23f 22be
00000030: ea22 a7bd 1000 fcbd 542c 8bbb 5634 fbbd
00000040: 397d 27bd 9b91 e4bc ab49 333e b4a1 0a3d
00000050: 53aa 773d 58d2 173e 942a 173d 951f 8abc
00000060: 295c abbd 2270 00be b164 873c 93da afbd
00000070: e3d2 6a3c cba5 483d 9d9b ed3d 1eb6 60bc
00000080: 0d15 94bd 7525 893d 4720 a33c 0baf 023e
00000090: 9865 6bbc 59f7 153d 199e 893d b31c 4cbe
000000a0: e7c8 e33d ea2a eebb c192 51bd 4486 77bc
000000b0: 3e37 64bd eb32 e4bd 44ac 2eba 26fd 0a3d
000000c0: 63a3 aa3c 7d92 133e 6b87 db3a ccab 4a3d
000000d0: 2d27 02be 9ca2 d9bd 3424 bebd 509a 0b3d
000000e0: d3e7 0c3e 7015 be3d 7175 be3d 2c60 c43d
000000f0: bb8a 54be d736 58bc ba6a 693d a084 3cbd
00000100: 662a b23d d91b 1b3d 8209 8ebe cdaf 12be
00000110: 7ae2 dc3c cf92 24bd b3f3 0c3e 3068 90bd
00000120: 07dc 41bd c92c 97bd ad49 6a3d ac65 983d
00000130: 6814 8f3c 84f7 80bd 325d 713d 06fb d2bd
00000140: b1d0 0c3e 887c e0bd ada6 d5bd 7e81 c53b
00000150: a2f5 333e 9cbc dc3c f600 ec3c 930f f8bd
00000160: 9303 b23d f2bd 2fbe 1962 d93d 0571 2fbe
00000170: 3604 03be bc6d 973d 04b7 fc3d b56e 8cbd
00000180: 505b 6e3d 3e4e 14be 9be3 9a3d 01d9 98bd
00000190: d7e6 2cbc cacf 393c e02b 833c e707 9b3c
000001a0: 8510 693c 6ddf d33c 558e 89bd c4d4 dfbc
000001b0: 1b49 cbbd 9d87 7cbd cc6c a7bd 2934 5abd
000001c0: 90d6 a33d eb32 b1bd c3c3 a93c b104 22be
000001d0: 49a9 1a3e 75d3 8abd ea6c 343d 40d4 543e
000001e0: 3a4b 99bc 5d7b 38bd 5198 c83d ee55 103d
000001f0: 0c25 1cbc 06e8 573d 5e0c 11be aa1f 3d3d
00000200: 3ed6 0dbd fa5c 8f3c aa42 d83d ddf2 843d
00000210: 174b 94bd 1b9f 36bd 2f83 74bd f87d 1ebe
00000220: 071d 6bbd 1d55 b33d 8fb1 6e3c e25d d03d
00000230: e52e 9a3d 01e7 163e 0a1a ed3d e1d1 acbe
00000240: 3665 c1bd 6ee4 c6bd ba21 c13d b463 89bd
00000250: 04b2 0b3d 00df dbbd 7135 84be 12bd c2bd
00000260: f4b9 1e3d cb8a 14bd c690 903d 74d1 7a3d
00000270: ae07 9cbc 1038 a9bd ce00 84be 18f0 86ba
00000280: f5a7 99bd a0be ffbd 5ac0 76be 05d3 1ebe
00000290: 3db3 873c 9a8e 1b3c 9c49 733b ed69 263e
000002a0: 7bd9 35be a92e 60be d08b bbbb 1921 1b3e
000002b0: 021b 7d3c 7842 023e 24c7 a43d 43f1 1dbc
000002c0: 8ea3 f4bd 0e48 e03c 1c2f c9bd ed81 e1bd
000002d0: 4825 f83c 2209 68be daf3 1a3d bf02 f73d
000002e0: 6dba 8d3d b09b 513d 05f6 553c 90c4 09be
000002f0: 1f85 883e 715e a7bd 22c5 d03d 1d5c 833d
00000300: 43af 523d 1cf5 8ebd 3a97 5d3e 3989 21be
00000310: 29bb 0f3e 26dd c4bd 7398 8cbb 8c75 ecbc
00000320: 0196 03bc e5dc 00be 520c 03bd 2bc5 093e
00000330: 0353 88bc b86f cbbd 277b 2cbe 0dd1 d8bc
00000340: b7c2 873d f971 0bbd c849 a0bc 0100 273d
00000350: 2ae2 483c fe6b 2ebd bdaf fd3c a5b1 ba3d
00000360: ecf4 953d 844c 1d3e 0546 fd3d a9e2 b2bc
00000370: a36c 1abd c4f5 fc3b 1185 95bd a346 16be
00000380: 8f32 363e 600b 583d 92b9 593c 8b69 0d3e
00000390: 6bbd ccbd ba8f 3a3d bfea 38be 8d5a 43bc
000003a0: 2543 9cbc b500 12be 8afb dbbd 591c dc3d
000003b0: f777 d73b e0c9 bdbc 5636 a0bd acc1 29bc
000003c0: 1617 153d 8b79 f739 b1f6 41be 141f c63d
000003d0: 52da e4bd 6f82 1b3e c679 aebd 6292 13bd
000003e0: 9164 273d 2eab f1bd dba9 863d f756 f43b
000003f0: 1fe4 aabd b70c 47be c932 d2bc 21a4 daba
0.0367999 0.050423726 -0.08616444 0.16187365 0.05587236 -0.20125759 0.15824555 0.054519754
0.09226557 -0.24486732 0.039795816 -0.15844586 -0.08160956 -0.123046994 -0.0042472277 -0.12265842
-0.040890906 -0.027901461 0.17508571 0.03384562 0.06046517 0.14826334 0.03690584 -0.016860763
-0.083671875 -0.12542775 0.016527506 -0.085866116 0.014332506 0.048986237 0.116019465 -0.013715295
-0.072305776 0.066965975 0.019912852 0.12762086 -0.014367484 0.036612842 0.06719608 -0.19932823
0.111223035 -0.0072682993 -0.051165346 -0.015107695 -0.055716746 -0.11142524 -0.0006663243 0.033932827
0.020829862 0.1441135 0.0016748732 0.049480245 -0.12710257 -0.106267184 -0.09284249 0.03408271
0.13760309 0.09281433 0.09299744 0.09588656 -0.20756046 -0.013196669 0.056986548 -0.04602492
0.08699493 0.037868354 -0.2774163 -0.14324875 0.026963461 -0.04017907 0.13764839 -0.07051122
-0.047328975 -0.07381589 0.05719917 0.07441267 0.017465785 -0.0629721 0.05892677 -0.10301785
0.13751484 -0.109612525 -0.104321815 0.0060273996 0.1757417 0.026945405 0.028809052 -0.121123455
0.08692088 -0.17162302 0.10614414 -0.17132957 -0.12794575 0.07393977 0.12339595 -0.06857053
0.05819255 -0.14482972 0.075629435 -0.07463265 -0.010553083 0.011341045 0.016012132 0.018924667
0.01422513 0.025863374 -0.06716601 -0.027323134 -0.09926053 -0.06165277 -0.08175048 -0.0532724
0.07999909 -0.0865229 0.02072323 -0.15822102 0.1510364 -0.067786135 0.04404918 0.20784092
-0.018712629 -0.045039523 0.09794677 0.0352382 -0.009530317 0.05271151 -0.14164874 0.046172775
-0.034628145 0.01750039 0.1055959 0.06491635 -0.07240885 -0.04458533 -0.05969542 -0.15477741
-0.05740073 0.087564684 0.0145687 0.10174157 0.07528476 0.14736558 0.11577232 -0.33753875
-0.094431326 -0.09711538 0.09430261 -0.0670847 0.034105316 -0.10735893 -0.25822023 -0.095087186
0.038751557 -0.036265176 0.07058863 0.061234906 -0.01904663 -0.08262646 -0.25781864 -0.0010294942
-0.075027384 -0.12487531 -0.24096814 -0.15510185 0.01656496 0.009494448 0.0037122732 0.16251345
-0.17758743 -0.218928 -0.005723454 0.15149345 0.015448334 0.12720668 0.080457956 -0.009640041
-0.11945258 0.027378108 -0.098234385 -0.110111095 0.030291215 -0.22659734 0.03783021 0.12061071
0.069203235 0.051173866 0.013059144 -0.13453889 0.26664063 -0.0817231 0.1019385 0.064140536
0.051436674 -0.06980345 0.2163972 -0.15775003 0.1403624 -0.09612493 -0.0042906343 -0.028864644
-0.008031369 -0.12584265 -0.03199417 0.1345412 -0.016641146 -0.09933418 -0.16843854 -0.02646687
0.06628936 -0.03404424 -0.019566432 0.040771488 0.012260953 -0.042583458 0.030967588 0.09115914
0.07322106 0.1536122 0.12366871 -0.021836596 -0.03770126 0.0077197272 -0.07300771 -0.14675383
0.17792724 0.052745223 0.013288872 0.13809793 -0.09997066 0.045547225 -0.18058299 -0.011923444
-0.019074986 -0.14258082 -0.10741337 0.107475944 0.00657558 -0.02316755 -0.07822864 -0.010361116
0.03639897 0.00047202068 -0.18941762 0.096738964 -0.11174454 0.15186475 -0.0851932 -0.036028273
0.040867392 -0.11800228 0.06575366 0.007456656 -0.08344292 -0.19438444 -0.025658982 -0.0016680994

b5 f4 [64]
00000000: 9694 86bd 2a88 1ebe 8693 a9bc 3112 d8bd
00000010: 5597 1abe 4fc6 523b 095b b93d dc90 94bd
00000020: 7479 27bd e84c 303c 1981 dbbd 2590 5f3d
00000030: d68a 25be 2ce6 113e 89fc 01be 2a0d 963d
00000040: b1a5 e8bd 29fa e6bd fd6a e23d 9a1d 253d
00000050: 4b00 b3bd 39c1 083d 4a01 0a3d d8ae 4a3c
00000060: 3011 16bd 9963 04be 31cb b13b 02a4 13bd
00000070: 5533 08bc 54e5 97bd 598b 07bd 25c9 14bb
00000080: 69b9 eebd 29f1 e2bc 8dce ba3d 9aae 5c3d
00000090: 60f9 e0bb 8b3f 09be b962 94bd 5bb0 c43d
000000a0: b41d 57bd 9919 943d 43b0 08be 4dad 1a3e
000000b0: ebb3 a73d 857b ad3d 2f13 24be 733a 89bd
000000c0: a954 24be 634b 05bc 8a95 4f3d 0ed7 2ebe
000000d0: e75f 163e a892 ddbd 0630 a0be 332b a33c
000000e0: 5e34 033d 4e5e 6c3d 05b8 2b3e e389 7f3c
000000f0: 44b3 c8bd 39fa bfbd a859 f6bd 8801 123d
-0.06571309 -0.1548163 -0.020700227 -0.10550345 -0.15096791 0.0032161658 0.09050567 -0.07254192
-0.04088731 0.010760523 -0.10717983 0.054580826 -0.16166243 0.1424796 -0.12693991 0.073267296
-0.11359728 -0.11278183 0.11055563 0.040311433 -0.0874029 0.033387396 0.033692636 0.012370788
-0.036637485 -0.12928618 0.0054258336 -0.036045082 -0.00831302 -0.07416788 -0.033091877 -0.00227029
-0.11656458 -0.027702885 0.09121428 0.05387745 -0.0068656653 -0.13403146 -0.07245392 0.0960395
-0.05251856 0.07231445 -0.13348489 0.15105172 0.081886135 0.08470825 -0.16022943 -0.067006014
-0.1604792 -0.008135649 0.05067972 -0.17074224 0.14685021 -0.10818988 -0.3128664 0.01991806
0.032032363 0.057707123 0.16769417 0.01559684 -0.09799817 -0.09373898 -0.12028819 0.03564599

w6 f4 [64, 64]
00000000: add0 d5bd f7a4 453e a09d 12bc 20cc b23d
00000010: 83dc 383c 6c1d 6dbe 6e97 4d3d 9ca3 423e
00000020: 43a5 49bd 4023 1b3e c931 60bd cd08 06bd
00000030: ce57 903d 8392 62bd 9727 0e3d 2b70 5a3b
00000040: 157a 273d dbf0 103e 83d9 9f3d 5ed8 2ebe
00000050: 9e07 3a3e 5dc0 85ba 4860 0ebe b18c 99bb
00000060: c065 a03c 4e60 9abd 80e1 abbd 2ad5 debb
00000070: 5009 143e 703f 153d c55a 0ebe d8c5 4e3e
00000080: d136 87bd 55ef 97bd 39aa 72bc 07c3 98bd
00000090: 6d24 6bbe 6bff 713d 7302 d33d 43af d93d
000000a0: fea3 903a f1a8 e3bd 51ba 943c 1f96 bb3b
000000b0: 063b 933d 202b ddbd e1a6 6dbd 6a71 b93b
000000c0: ba77 9cbd 3bf6 d9bd 1ef4 67bd 3d3a 15be
000000d0: 1838 093e de45 c13c 3e07 83be fd30 243c
000000e0: fe00 85bc 8afa 6b3d 084a ae3c 1ce0 35bd
000000f0: 0a6b a83d ca17 683c 16b3 24be 3465 f5bd
00000100: 6459 ee3d 7c15 8b3a b422 bfbd 99b9 d7bd
00000110: 9d15 a5bc 907e 163e e1ac a03d dfbc 91bd
00000120: 6560 60bd edf1 09bd a995 143e 7846 7d3d
00000130: 5c91 0a3d 6aed 4b3e e969 813d c9b5 cb3c
00000140: 31b1 113e 9233 afbd 92b3 02be bd47 c0bd
00000150: e9a4 7e3c 4b06 9e3c 83ad bd3d b456 323e
00000160: eca4 5e3c c719 263c 1c63 9e3b 5cea 22bd
00000170: a9d0 053c 47ea c0bd 1c41 aabd e55d ac3d
00000180: d299 393d c27b acbd 36c2 483e ff64 903d
00000190: ec1b 073e bcd1 7e3d f3bd 2a3e f707 213d
000001a0: 5a1b 5cbd b01c 553d 2b02 db3b d773 1d3d
000001b0: f233 7bbc 6fd8 02be beb5 a03d be8f d03d
000001c0: cf8d 93bd 8d4e aebd c235 f6bc 6419 b7bc
000001d0: 425c ed3c e7b4 e13d bfc6 89bd 07c3 863d
000001e0: c4ce f63d 1484 25bd 912e 8fbd 97bc ce3d
000001f0: bed2 fc3d ef0f 83bd 637b 9fbd ebc4 12bd
00000200: e2f1 003d c298 77bd 8369 61bb d49e dbbd
00000210: dd04 33be fa3f cf3b 7c60 243d 8dc4 62bc
00000220: ca80 fe3c 8958 c0bd 9603 b13d af90 b03d
00000230: 70a6 e63c 2d41 aabd 4ce6 0e3d cf50 44bd
00000240: be3b d73d 539d 1f3e cd72 a43d cdba 46bd
00000250: 38e7 cf3c e9be 06bc 6931 623d 54db c3bd
00000260: 3a61 d83d 4678 2d3c 195c 85bd 7f57 d6ba
00000270: dbc9 5e3d a2b1 d6bd 9837 f53d 7d5b f23c
00000280: 32a6 16be 7325 733b fa4a 0bbd 43fd bcbd
00000290: 6524 b4bd 2a9c f83b 4eb4 ec3b a5fe 863d
000002a0: 3536 a3bd e891 ddbc 863d ac3d e03c dabd
000002b0: b1df 87bb 16a5 a1bd 7a00 22bd c78c 0b3e
000002c0: 6eea 953d c7d5 abbd cbd5 1abb d4a8 8e3d
000002d0: 9bff 3dbe 7798 1fbe 0809 e3bc 2653 c2ba
000002e0: 6d02 d0bd 14a4 2a3e a056 86bd a9f5 81bc
000002f0: 0206 27be 938d 043d 1b68 cf3d e7d2 15bd
00000300: 6557 3fbd 4a3b 6dbe ecd3 36bb 3ef5 5dbe
00000310: 9905 7f3d 0fab a2bd 8f5d d6bd be53 e03d
00000320: 9a1a 363d e256 edbc f74e be3c cf3e 3fbd
00000330: f29d 5cbd a70a 6e3e 4310 f5bd 15ee 33bd
00000340: 155e 4f3e 2dd5 30bd 9c51 7ebd ee0e a3bd
00000350: d12d eabd d350 27bd 7965 063e 1cde 2e3d
00000360: 8aa3 123e feef 60bc 3f81 7f3d d9ab 17be
00000370: fee3 793d 8fbf 12bc 1fe6 b33d a0be 11be
00000380: 983c 1dbe 45a6 babc 4b41 6f3c 5ec1 3a3e
00000390: fd10 88be d3d6 98bc 2203 713d a1ec 023e
000003a0: fb3a 393d 938d 48be 4d53 8bbd 0c64 253e
000003b0: ff83 e63d a1fe d2bd 0dee 2c3e c161 14be
000003c0: 1f0e 563d 25b2 aebd 469f 653d f62c 543d
000003d0: fc7c 76bc 3850 3fbe 54ea 4d3d 8b26 f63d
000003e0: 7bbc 86be 76b3 243e 9416 f1bd 4388 36bc
000003f0: badb 8bbd 01fc 2abe 507b 3e3d 83ab 7dbd
-0.10440192 0.1930121 -0.008948714 0.0873034 0.011283043 -0.23155755 0.050193243 0.19007725
-0.04922987 0.15150166 -0.05473498 -0.032723237 0.070479974 -0.055315506 0.034705725 0.0033331017
0.04088791 0.14154379 0.07805159 -0.17074725 0.18166968 -0.0010204423 -0.13903916 -0.004685961
0.019579768 -0.075379 -0.0839262 -0.0068003135 0.14456677 0.03643745 -0.13901813 0.20192659
-0.06602252 -0.07418696 -0.014811092 -0.074590735 -0.22963114 0.059081476 0.103032015 0.10629132
0.0011035202 -0.111162074 0.018155249 0.005724683 0.07188992 -0.10799241 -0.058020476 0.005659272
-0.076400235 -0.10642668 -0.056629293 -0.14572997 0.13400304 0.023592886 -0.25591463 0.010021445
-0.016235825 0.05761198 0.021275535 -0.04440318 0.08223541 0.014165828 -0.16083941 -0.119821936
0.11638144 0.0010611261 -0.09332791 -0.10533447 -0.020151908 0.14696717 0.07845474 -0.071161024
-0.05477943 -0.033677984 0.14510216 0.061834782 0.03383003 0.19914785 0.06319029 0.024866955
0.1422775 -0.08554758 -0.12763813 -0.09388683 0.015542247 0.01929011 0.0926161 0.17415887
0.013589125 0.010137982 0.004833592 -0.039774284 0.008167424 -0.09419685 -0.083132 0.084163465
0.04531271 -0.084220424 0.19605336 0.070505135 0.13194245 0.062211737 0.16674022 0.039314236
-0.053737022 0.05202931 0.006683608 0.03844055 -0.015332209 -0.12777875 0.078471646 0.10183667
-0.07204782 -0.08511076 -0.03005493 -0.022350974 0.028974656 0.110208325 -0.06727361 0.06580167
0.12051156 -0.040409163 -0.06991304 0.100945644 0.123448834 -0.063995235 -0.07787206 -0.035832327
0.031480677 -0.060448416 -0.0034395165 -0.107236534 -0.17482324 0.0063247653 0.040131077 -0.013840807
0.03106727 -0.09391887 0.08643262 0.08621346 0.028155535 -0.083132125 0.034887597 -0.047928628
0.10509442 0.15587358 0.08029709 -0.04851799 0.025378808 -0.0082242275 0.055222902 -0.09563318
0.105654195 0.010587757 -0.06511707 -0.001635298 0.054391723 -0.104830995 0.11973494 0.02958464
-0.14711836 0.003710118 -0.03400705 -0.09227993 -0.08796004 0.0075869756 0.0072236424 0.06591538
-0.079693235 -0.027047113 0.08410172 -0.10656142 -0.004146539 -0.07892816 -0.039551236 0.13627921
0.073201045 -0.08390384 -0.0023625966 0.06965795 -0.18554537 -0.15585504 -0.027714267 -0.0014825806
-0.10156713 0.16664153 -0.06559491 -0.01586421 -0.16310886 0.03236158 0.101272784 -0.036578085
-0.046714205 -0.23167148 -0.0027897311 -0.21675584 0.062261198 -0.07942783 -0.10467064 0.109534726
0.044458963 -0.028972093 0.023231013 -0.04669076 -0.053861566 0.23246251 -0.11965992 -0.043928225
0.20250733 -0.04317205 -0.062089548 -0.07961832 -0.1143452 -0.040848564 0.13124646 0.04269229
0.14320198 -0.013729094 0.062379118 -0.14811648 0.061008446 -0.008956804 0.087841265 -0.14232874
-0.15355146 -0.022784362 0.014602969 0.18237826 -0.2657546 -0.018657124 0.05884088 0.1278558
0.045222264 -0.19585256 -0.06802998 0.16151446 0.11255645 -0.10302473 0.16887684 -0.14490415
0.05225956 -0.08530072 0.056060098 0.05180069 -0.015044447 -0.18682945 0.0502723 0.1201907
-0.26315674 0.16084084 -0.117718846 -0.011140886 -0.06829019 -0.16697694 0.04650432 -0.061931144

b6 f4 [64]
00000000: 6be4 e63c 29d1 90bd 8649 253d 30dd 20bd
00000010: a917 1bbd a80d ecbd 2261 bfbc 8e55 6e3d
00000020: 72bc 36bd 8365 81bc 78e7 8b3c f34c 8cbd
00000030: bb24 06bc 8665 a53a 2616 983d 4971 573c
00000040: 79a4 42bc 6beb d1bd 2ab3 12be 31d1 b5bd
00000050: 7d90 4d3d a4cf 84bd 4f95 a13c b59f 8f3e
00000060: fabd 9bbd a639 32be 300d 59be 3071 5a3d
00000070: 4c10 9ebd 7470 02be e77b 323e 44da 7bbd
00000080: a78f 8fbd 0245 3cbd b2b5 0d3d e4b4 03bd
00000090: 3a50 293e f15a 553b b19a b5bd b47a fb3d
000000a0: b4c3 ce3d e8b3 e0bd e8b8 593d 297a b83d
000000b0: e6c7 17bd 8ef5 dabd 874b 1bbd c3b9 dd3d
000000c0: 2861 4d3d 1145 5abc bf10 85bb 1258 ac3d
000000d0: 9d4a 053d b078 d3bc 9a85 1ebd da45 8ebd
000000e0: e245 183d 26f6 c9bc 1cd7 013e bc87 a1bd
000000f0: 0ba3 ca3c 71db f13d 181b 9fbc 305f 343d
0.02818509 -0.07071144 0.04035332 -0.03927344 -0.03786436 -0.11526042 -0.023361746 0.05818706
-0.04461331 -0.015795475 0.017078146 -0.068506144 -0.008187468 0.0012618757 0.074260995 0.013149568
-0.011880034 -0.102499805 -0.14326158 -0.08877791 0.050186623 -0.06484917 0.019724516 0.28051534
-0.076045945 -0.17404804 -0.21196437 0.0533306 -0.07717952 -0.1273821 0.17430077 -0.06148745
-0.070098214 -0.04596425 0.034597106 -0.032154933 0.1653451 0.0032555426 -0.08867396 0.12279263
0.10095921 -0.109718144 0.053154856 0.09007675 -0.037055872 -0.10691367 -0.037913825 0.10826447
0.050141484 -0.013322131 -0.004060834 0.084152356 0.03254186 -0.025814384 -0.03870163 -0.06946917
0.03717602 -0.024653506 0.12679714 -0.078872174 0.024735948 0.11809433 -0.019422099 0.04403609

w7 f4 [64, 1]
00000000: 209b 4dbd 1be0 f0bd b697 b6bd c328 383d
00000010: 6345 0bbe 7d08 be3d e119 203e 8ffd a53d
00000020: d74d ba3c 4dcb 2dbd 9cee 583c 0087 733d
00000030: ae73 433d 9092 a7bd aabb 4f3c 2c9e 00be
00000040: 05cd b33d c9ae 513d 412e 3ebd 8306 163d
00000050: 4f9d 0b3e 93f5 a6bc d429 d43d ffcb b8bc
00000060: 2325 333e 0462 20be 9d76 3a3d 1cc5 623c
00000070: a4ed a73c 471a b6bd e1b8 9dbc 2405 9f3b
00000080: c742 07bc b6cc 85be bb18 c93d f705 72bd
00000090: 883a dcbb d3ba 9a3c cab9 883d ba65 e73d
000000a0: 6896 403d d7e0 a0bd f452 753d 20f7 5d3a
000000b0: d044 fe3d ddeb 933d 59e1 ae3d 1a19 293e
000000c0: 9e29 ff3d 5650 943d 0819 eebc 6f27 81bd
000000d0: 013d 813d 5b06 e33d 23b1 f23d 44ed 333e
000000e0: cbc4 40bd 65c7 cdbd 38ff 13be ecda 783d
000000f0: 8529 f63d 6d66 cd3d 8997 48be bd39 2f3e
-0.050196767 -0.11761495 -0.08915655 0.04496075 -0.13600688 0.09278963 0.15634872 0.08105003
0.022742195 -0.04243021 0.013240483 0.059454918 0.047717743 -0.081822515 0.01267902 -0.12560338
0.08779339 0.05119208 -0.04643083 0.036627304 0.13634227 -0.02038077 0.103595406 -0.02255821
0.17494635 -0.1566239 0.045523275 0.01384094 0.020499058 -0.08891731 -0.019253196 0.0048529077
-0.008255667 -0.26132745 0.0981917 -0.05908772 -0.0067208447 0.018887913 0.066760615 0.112987
0.04701844 -0.07855385 0.059893563 0.00084673055 0.12415469 0.07222722 0.085390754 0.16513482
0.1245911 0.07241885 -0.02906467 -0.063063495 0.06310464 0.110851966 0.118501924 0.17570978
-0.047062676 -0.10047797 -0.14452827 0.060755655 0.12019638 0.10029302 -0.19589056 0.17111869
