DNN/model.pth (torch, 108330 bytes, 20 tensors)

w1 f4 [42, 84]
0	0x3eb741f8	0.35792518
1	0x3e8191ca	0.2530654
2	0xbf407a5c	-0.75186706
3	0xbf20c499	-0.62799984
4	0x3e3bf3d8	0.18354738
5	0xbe868a30	-0.26277304
6	0x3f079884	0.52967095
7	0x3e22e707	0.15908442
8	0x3e2adae6	0.16685066
9	0xbefcf667	-0.4940674
10	0x3dec2b08	0.11531645
11	0xbdc412d6	-0.09573905
12	0xbe122741	-0.14272787
13	0xbec7827c	-0.3896674
14	0xbf6f3317	-0.9343733
15	0x3e946b2f	0.28988025
16	0xbea4e127	-0.32203028
17	0x3e821166	0.254039
18	0xbd6cfbd5	-0.057857353
19	0xbf0b0b2f	-0.5431394
20	0x3f06b828	0.5262475
21	0x3e3edb12	0.18638256
22	0x3f1fef52	0.6247455
23	0x3f5674cc	0.8377197
24	0xbed1987e	-0.40936655
25	0xbd577ac9	-0.05260733
26	0x3eef7220	0.46766758
27	0x3e7a9bf0	0.24473548
28	0xbd81743b	-0.06320997
29	0xbe034086	-0.12817582
30	0xbcee9555	-0.029123941
31	0x3f9eb8e1	1.240017
32	0xbee1e90a	-0.44123107
33	0xbf29118d	-0.66042405
34	0xbea4cfb2	-0.3218971
35	0x3edb5738	0.4283998
36	0xbf60dc08	-0.8783574
37	0xbf0f0757	-0.55870575
38	0xbec70bec	-0.38876283
39	0xbea30e36	-0.3184678
40	0x3f15f673	0.58579177
41	0xbece1aa9	-0.40254715
42	0xbf6c79f9	-0.92373616
43	0x3d75c058	0.059997886
44	0x3e809907	0.2511675
45	0x3edddbc8	0.43331742
46	0xbc8e1673	-0.017344689
47	0xbf107926	-0.5643486
48	0x3f121d3d	0.57075864
49	0xbf319ae9	-0.69377
50	0xbd99f72a	-0.07517846
51	0x3ea0f544	0.31437123
52	0x3f0af3d5	0.5427831
53	0xbcea675e	-0.028613742
54	0xbfb20745	-1.3908468
55	0x3ecb87b1	0.39751962
56	0x3e8a3a45	0.2699758
57	0xbecb7739	-0.39739397
58	0x3e92598a	0.28583938
59	0x3e8336aa	0.25627643
60	0xbe3f40da	-0.18677083
61	0x3ec99723	0.3937312
62	0x3ef6fcb3	0.4823967
63	0x3e6335b5	0.22188456
64	0xbe090a7f	-0.1338291
65	0x3f32f5bd	0.69906217
66	0xbf27c62b	-0.65536755
67	0x3ecde041	0.40210155
68	0xbdcd6c56	-0.10030429
69	0x3b457f27	0.0030135603
70	0xbe7a9293	-0.24469976
71	0xbf0f23f5	-0.5591424
72	0xbf264bb3	-0.6495926
73	0xbeb00bce	-0.34384006
74	0xbf57797d	-0.8416975
75	0x3f434b71	0.7628699
76	0x3efea590	0.4973569
77	0x3f14cb2d	0.5812252
78	0xbf0cafe7	-0.54955906
79	0xbe88546f	-0.26626918
80	0xbdf3ce07	-0.11904531
81	0xbe1c8531	-0.15285183
82	0x3d96fc7e	0.07372378
83	0xbf0a5ec6	-0.5405086
84	0xbe106cdf	-0.14104031
85	0x3db72b9e	0.08943866
86	0xbeee19ee	-0.46504158
87	0x3efc6859	0.4929836
88	0xbfb4cc73	-1.4124893
89	0x3e86905d	0.26282015
90	0xbed1783e	-0.4091205
91	0xbdf74784	-0.120741874
92	0x3f858bfa	1.0433342
93	0xbdce01a5	-0.100589074
94	0xbe406d5f	-0.18791722
95	0x3e8d4faa	0.2759984
96	0x3ddc0466	0.107430264
97	0xbf155cb2	-0.58344567
98	0xbecf0ff7	-0.40441868
99	0xbefcc8f6	-0.4937207
100	0x3d74f5b1	0.059804622
101	0x3f3702f0	0.7148886
102	0xbd2e3319	-0.0425292
103	0xbe957c0e	-0.2919621
104	0x3e934520	0.28763676
105	0xbf33f49a	-0.7029511
106	0x3e426845	0.18985088
107	0x3f9929bf	1.1965865
108	0xbe6fc29a	-0.23414078
109	0xbe1bf8d0	-0.15231633
110	0xbf034811	-0.5128184
111	0x3f0e9b7d	0.55706006
112	0x3f1e6bf8	0.618835
113	0xbfa3d7e3	-1.2800258
114	0x3e29e9b7	0.16593061
115	0x3df06d32	0.11739577
116	0x3e10d7a2	0.14144757
117	0xbce3ea79	-0.027821766
118	0x3e46d1b6	0.19415936
119	0xbe382b4f	-0.17985271
120	0xbf148c1a	-0.5802628
121	0xbcdf2e2f	-0.027243702
122	0x3f6db349	0.9285169
123	0x3d5f9389	0.05458406
124	0x3e6742c7	0.22584067
125	0xbd0c7467	-0.034290697
126	0x3f35afa1	0.70971113
127	0x3d206c1f	0.039165612
128	0xbf59158c	-0.847985
129	0x3f0a062b	0.5391566
130	0xbe35d965	-0.1775871
131	0x3f2e8a69	0.6817995
132	0x3f3f4d58	0.7472739
133	0x3c391d55	0.011298497
134	0xbeef0de5	-0.46690288
135	0xbe86ab51	-0.2630258
136	0x3e4a59ac	0.1976077
137	0xbddb49d3	-0.1070744
138	0x3d8a9e5e	0.067684874
139	0x3f202cb9	0.6256824
140	0x3ead5b18	0.33858562
141	0x3fb69bf6	1.4266346
142	0x3d8d0066	0.068848416
143	0x3e454e42	0.19268134
144	0x3ea66135	0.32496038
145	0xbf86f18e	-1.0542467
146	0xbe846474	-0.2585789
147	0xbbef86b9	-0.0073097614
148	0xbe8c1557	-0.2736003
149	0x3f8a44b9	1.0802222
150	0xbe711099	-0.23541488
151	0x3f5c788d	0.86121446
152	0xbe9fdc33	-0.31222686
153	0xbe12b6b5	-0.1432751
154	0xbc088f93	-0.008335012
155	0x3e5504a3	0.2080255
156	0xbd04ad6c	-0.03239195
157	0xbea032c3	-0.31288728
158	0x3e54aeed	0.20769854
159	0x3f34c865	0.7061828
160	0x3c9a0f06	0.018805992
161	0x3e3ae5e2	0.18251756
162	0xbe9af96f	-0.30268428
163	0x3c882875	0.016620854
164	0x3f24f6c8	0.6443906
165	0x3f218bb8	0.6310382
166	0xbf83f6d6	-1.0309703
167	0xbf3e89b0	-0.74428844
168	0xbdbaacf0	-0.091150165
169	0x3e9d9064	0.30774224
170	0xbe7f7a27	-0.24948941
171	0x3e99c356	0.30031842
172	0x3f70fce0	0.94135857
173	0x3dfe4201	0.12414933
174	0x3e6a3001	0.22869875
175	0x3eb3f761	0.35149673
176	0xbfc20dcd	-1.5160462
177	0x3f8cd0cd	1.1001221
178	0xbec0959e	-0.3761415
179	0x3ee24780	0.44195175
180	0xbe8596fb	-0.2609175
181	0x3f10b111	0.5652018
182	0xbef6cf0a	-0.48204833
183	0xbdb0a160	-0.0862453
184	0xbf1e3bc1	-0.6180993
185	0xbe7f83cd	-0.24952622
186	0x3e6faa0d	0.23404713
187	0xbefed032	-0.49768215
188	0xbd6844f3	-0.05670638
189	0x3ed23cff	0.4106216
190	0x3eba8be2	0.36434847
191	0x3f8ac436	1.0841129
192	0xbe4a4f8d	-0.19756909
193	0x3df239a9	0.11827404
194	0x3e1c9c61	0.15294029
195	0x3eba8232	0.36427456
196	0xbf0104f9	-0.5039821
197	0x3f1b1552	0.6057941
198	0x3f8eb39f	1.1148566
199	0xbf287a0e	-0.6581124
200	0xbe956479	-0.29178217
201	0xbf53a882	-0.82679
202	0x3e89936d	0.2687029
203	0xbe98cdb1	-0.2984443
204	0xbf5a7ab3	-0.85343474
205	0x3f1bf608	0.6092229
206	0xbe4f3f8f	-0.2023909
207	0x3cb2c0c6	0.021820437
208	0x3d0962ee	0.033541612
209	0x3dffec6b	0.12496265
210	0xbf705c7d	-0.93891126
211	0x3ed86039	0.42260912
212	0x3e2b1a16	0.1670917
213	0xbddb56a1	-0.107098825
214	0x3f095aab	0.53653973
215	0x3f289b24	0.65861726
216	0x3e059cd7	0.13048111
217	0x3caf143b	0.021371951
218	0xbf0421a6	-0.51613843
219	0xbf3bf47e	-0.7341994
220	0xbd4af738	-0.049552172
221	0xbee43246	-0.44569606
222	0xbf2bd13b	-0.67116135
223	0xbe93cb54	-0.28866065
224	0xbdeaf03a	-0.11471601
225	0xbde6098e	-0.11232291
226	0x3f35248c	0.7075889
227	0xbed4b8a1	-0.4154711
228	0x3f1a4ea0	0.6027622
229	0x3ec2bb74	0.3803364
230	0xbef50358	-0.47854114
231	0xbef9c69b	-0.48784336
232	0xbf3e4249	-0.74319893
233	0x3dc14ec0	0.094388485
234	0xbe15170d	-0.14559574
235	0xbe3f7a4c	-0.18698996
236	0xbe50495c	-0.20340484
237	0x3edebaab	0.4350179
238	0x3eb2a181	0.34888843
239	0xbcce1fbd	-0.025161618
240	0xbd722ba2	-0.059123643
241	0xbe6e303f	-0.23260592
242	0x3f0129de	0.5045451
243	0xbf0eefc9	-0.55834633
244	0x3e1a93df	0.15095471
245	0x3e100fee	0.14068577
246	0x3ebe5cd8	0.3718021
247	0x3f1092a5	0.5647376
248	0xbd9f1fd4	-0.077697426
249	0x3e71b6cc	0.23604888
250	0x3e3f24a2	0.18666318
251	0x3ee8e84f	0.45489737
252	0x3f57920f	0.8420724
253	0x3ebaaeeb	0.36461577
254	0x3f4abeed	0.7919758
255	0x3e1c121e	0.15241286

b1 f4 [84]
0	0xbf1946b3	-0.59873503
1	0xbf127c10	-0.57220554
2	0xbea8accf	-0.32944342
3	0xbefadf4f	-0.48998496
4	0xbe91fefe	-0.28514856
5	0x3e124323	0.14283423
6	0x3d4b163f	0.049581762
7	0xbf378b60	-0.71697044
8	0x3ecf3639	0.40471056
9	0xbf6a1c61	-0.9144955
10	0xbe27a1fe	-0.16370389
11	0xbf187855	-0.5955861
12	0xbed473dc	-0.41494644
13	0xbd616d02	-0.0550356
14	0xbea12373	-0.31472358
15	0xbfa96c29	-1.3236133
16	0xbf713db9	-0.94234806
17	0x3df6e135	0.120546736
18	0xbeb23c27	-0.34811518
19	0x3fa1f46b	1.2652715
20	0xbf604ad3	-0.8761417
21	0x3f799e9d	0.9750765
22	0x3f9527ad	1.1652733
23	0xbe257047	-0.16156112
24	0xbf1e9158	-0.61940527
25	0x3f215f8b	0.6303641
26	0xbe3a702b	-0.18206851
27	0x3f57eee2	0.8434888
28	0xbf34672d	-0.70469934
29	0x3e0b7c42	0.1362162
30	0xbf9f554c	-1.2447906
31	0x3ef37dcc	0.47556913
32	0x3f0ae459	0.5425468
33	0xbeb2cbe9	-0.34921196
34	0x3e3aebcd	0.18254013
35	0xbee53763	-0.4476882
36	0xbede1802	-0.43377692
37	0x3eb8785f	0.36029336
38	0xbebe91a9	-0.37220505
39	0x3eee1a6a	0.46504527
40	0x3d1f7ae1	0.038935546
41	0xbe233727	-0.15939008
42	0x3ec2f590	0.38077974
43	0xbf24bdd7	-0.6435217
44	0xbf379669	-0.7171388
45	0x3bc0cb1c	0.0058835875
46	0x3e1e6e10	0.15471673
47	0xbe9c1e66	-0.30491942
48	0x3ed6549f	0.41861436
49	0x3d3e6e4c	0.046491906
50	0x3ec7b977	0.39008686
51	0x3df80069	0.12109453
52	0xbd05ba5b	-0.032648426
53	0x3f25632f	0.6460447
54	0x3ec969b5	0.3933846
55	0xbebe2915	-0.37140718
56	0xbee173c7	-0.44033644
57	0x3ea539cc	0.32270658
58	0xbe4fee38	-0.20305717
59	0xbf4dee0d	-0.8044136
60	0x3e747cd3	0.23875742
61	0xbecd83f5	-0.40139738
62	0x3fb025a9	1.3761493
63	0x3e6b8759	0.2300085
64	0x3f71cf29	0.94456726
65	0x3f759a49	0.95938545
66	0xbd476d7b	-0.048688393
67	0x3deea141	0.116518505
68	0xbf84e1db	-1.0381426
69	0xbef23bda	-0.47311288
70	0xbf21ce04	-0.6320498
71	0x3df2923d	0.11844299
72	0xbf092d26	-0.53584516
73	0x3dbc5e70	0.091977
74	0xbf3c58a8	-0.7357278
75	0xbe390532	-0.18068388
76	0xbf16b334	-0.5886719
77	0xbca9f85a	-0.020748306
78	0xbebf0a7f	-0.37312695
79	0xbe19c406	-0.15016183
80	0xbee6b29c	-0.45058143
81	0x3df26fec	0.11837754
82	0xbeafcf04	-0.34337628
83	0x3eeec086	0.4663126

w2 f4 [84, 84]
0	0x3eb9ecd0	0.36313486
1	0xbeabb3c3	-0.33535585
2	0xbd8a024a	-0.06738718
3	0x3f76d61f	0.9642047
4	0x3e549b9b	0.20762484
5	0x3cb21a0d	0.021740938
6	0x3efdc547	0.49564573
7	0xbf082b2c	-0.53190875
8	0x3f362a9d	0.7115877
9	0xbe7b18bd	-0.24521156
10	0xbf120768	-0.5704255
11	0x3e49fa54	0.19724399
12	0xbdb721ec	-0.08942017
13	0x3f234914	0.63783383
14	0xbe8dbc57	-0.27682754
15	0x3e43271d	0.1905789
16	0x3dfccb99	0.12343521
17	0xbd091fd2	-0.03347761
18	0x3eae7ac9	0.34078053
19	0xbd850873	-0.06495752
20	0xbf043288	-0.51639605
21	0x3e049074	0.1294573
22	0x3f06b6b2	0.5262252
23	0xbe885fee	-0.2663569
24	0x3f29adbb	0.66280717
25	0x3ec712a2	0.38881403
26	0xbd6913de	-0.056903712
27	0xbd44e7ae	-0.04807251
28	0x3e3258a0	0.1741662
29	0xbeaf9738	-0.34295058
30	0xbef85328	-0.48500943
31	0x3db3ce99	0.0877964
32	0xbee6a543	-0.4504796
33	0x3f969045	1.1762778
34	0x3f1296e3	0.57261485
35	0xbd0361fd	-0.03207587
36	0xbf1d1c21	-0.61371046
37	0x3e942c7e	0.28940195
38	0x3ee7ec19	0.45297316
39	0x3eb4b66a	0.3529542
40	0xbe4bbd48	-0.19896424
41	0x3c17343e	0.009228764
42	0x3ed69956	0.4191386
43	0x3f4a3217	0.7898268
44	0xbe6b4434	-0.22975236
45	0x3e5e56c8	0.21712792
46	0x3f71dc86	0.9447712
47	0xbf2ef927	-0.68348926
48	0x3efd0725	0.49419513
49	0x3ec75729	0.38933685
50	0x3f4f20bd	0.8090933
51	0xbf825070	-1.0180798
52	0xbfb8e76d	-1.4445626
53	0xbf58c354	-0.8467305
54	0xbed04351	-0.40676358
55	0x3eb86a3d	0.36018553
56	0xbeecc8b6	-0.4624688
57	0x3f02d204	0.5110171
58	0xbe83ca94	-0.25740492
59	0xbe833df0	-0.25633192
60	0xbdf22d15	-0.11825005
61	0x3e0708a8	0.13186896
62	0xbeb78e04	-0.35850537
63	0xbbd79d1d	-0.0065800087
64	0xbfa2b790	-1.2712269
65	0x3eab309f	0.33435532
66	0x3f36df73	0.71434706
67	0x3dcbcbba	0.09950967
68	0xbe5d9f0c	-0.21642703
69	0xbde6d20b	-0.11270531
70	0xbe77999f	-0.24179696
71	0x3e7a1e47	0.24425612
72	0x3f175fa0	0.5913029
73	0x3e9739ee	0.29536384
74	0xbdc702df	-0.097173445
75	0x3f9e5096	1.2368343
76	0xbf09a91e	-0.5377368
77	0xbd46e178	-0.048554868
78	0x3f06d916	0.52674997
79	0xbf7a8e95	-0.9787381
80	0x3ea2b588	0.31779122
81	0xbf8ecf6f	-1.1157054
82	0x3f00a3c5	0.5024989
83	0xbee8f20d	-0.4549717
84	0xbc8c5642	-0.017130975
85	0xbea4d554	-0.32194006
86	0xbed821c3	-0.42213258
87	0x3f96b303	1.177338
88	0xbec7cb4f	-0.390223
89	0x3efbacc6	0.49155253
90	0xbeb6a691	-0.35673955
91	0x3ef8da47	0.48604032
92	0xbdc8c59e	-0.098033175
93	0xbe3ad808	-0.18246472
94	0x3dd34b9e	0.10317157
95	0x3dd9e066	0.10638504
96	0xbf71c723	-0.94444484
97	0x3ed037cb	0.40667567
98	0xbf0c1bd9	-0.5472999
99	0xbe998114	-0.2998129
100	0x3f0ec0a5	0.557627
101	0x3f32a7f6	0.6978754
102	0xbda359e6	-0.07976131
103	0x3e589131	0.21149136
104	0x3ede7b3b	0.43453392
105	0x3db8f2b0	0.09030664
106	0x3ed3bcf4	0.41355097
107	0xbe551ec4	-0.20812517
108	0x3e193606	0.14962015
109	0xbea4995a	-0.32148248
110	0x3c6d733b	0.014492805
111	0xbf1f38c3	-0.62195987
112	0x3ddacae8	0.106832325
113	0x3ec3d93b	0.3825167
114	0x3f0f6c5e	0.5602473
115	0xbf6a9439	-0.9163242
116	0x3f393c63	0.7235777
117	0xbdc4598a	-0.09587391
118	0x3ea823d5	0.32839838
119	0xbd315c94	-0.04330118
120	0x3ed5e565	0.41776577
121	0xbeaa75ef	-0.332931
122	0x3f2de718	0.67930746
123	0x3ed5bf3a	0.41747457
124	0x3f2e8969	0.6817842
125	0x3ddc46b6	0.107556745
126	0xbf32bab9	-0.69816166
127	0x3eb32664	0.34990227
128	0x3f57d66a	0.84311545
129	0x3e7b93ef	0.24568151
130	0x3e164243	0.14673714
131	0x3da84115	0.082155384
132	0x3da84a4c	0.08217296
133	0x3bb512e2	0.0055259326
134	0xbeb707b1	-0.35748056
135	0x3dc88c4c	0.097923845
136	0x3ea6362a	0.324632
137	0xbdfcfea9	-0.1235326
138	0x3efb0de6	0.4903404
139	0xbd672f86	-0.056441806
140	0x3f6fbe34	0.936496
141	0x3f389a6b	0.72110623
142	0x3e5145ca	0.20436779
143	0x3e95468e	0.2915539
144	0x3f17ddfa	0.59323084
145	0x3e48b8e2	0.19601777
146	0xbd9fcb2e	-0.07802425
147	0xbf08d0bf	-0.5344352
148	0x3e7cf7a5	0.24703844
149	0x3e9faa40	0.31184578
150	0x3f9c8319	1.2227508
151	0x3eb39331	0.35073236
152	0x3eb943de	0.3618459
153	0xbef23881	-0.47308734
154	0xbef5a6d4	-0.47978842
155	0x3f7184aa	0.94343054
156	0x3d63fed0	0.05566293
157	0xbe99f7aa	-0.30071765
158	0xbe9dec4f	-0.30844352
159	0xbe7b1de8	-0.24523127
160	0x3f5b6dae	0.8571423
161	0xbcb9d6ba	-0.022685397
162	0x3eec46e6	0.4614784
163	0x3eb7ac40	0.35873604
164	0xbe9405bc	-0.28910625
165	0xbeede6bd	-0.46465102
166	0x3f3d23e4	0.7388289
167	0x3e3386a6	0.17531833
168	0xbf3c997a	-0.73671687
169	0x3dc54fcc	0.09634361
170	0xbf9b5339	-1.2134773
171	0x3f46dcda	0.7768074
172	0x3e528102	0.20557025
173	0xbf4028fc	-0.7506254
174	0x3eae03f3	0.33987388
175	0x3ec41671	0.3829837
176	0x3ec03a70	0.37544584
177	0x3dcbafb7	0.09945624
178	0x3cee56fd	0.029094214
179	0x3d23f1e1	0.040025596
180	0x3e876655	0.2644526
181	0x3ec7a965	0.38996425
182	0x3eb8a893	0.36066112
183	0xbefa1d0e	-0.48850292
184	0xbf957ad5	-1.167811
185	0x3ed2b70d	0.41155282
186	0xbe9dbcbb	-0.30808052
187	0x3df6637b	0.12030693
188	0x3eacbcc2	0.3373776
189	0x3ebf06f5	0.37309995
190	0x3f4374de	0.763502
191	0x3e9e64f7	0.30936405
192	0x3cf023b8	0.029313907
193	0xbe56eafa	-0.20988074
194	0xbeb0c4bb	-0.34525093
195	0x3ee4e8e6	0.44708937
196	0x3e225678	0.15853298
197	0x3df7676e	0.120802745
198	0xbe12fe2c	-0.14354771
199	0x3d31607c	0.043304905
200	0x3ea91732	0.3302551
201	0xbe88620d	-0.26637307
202	0xbf49ba66	-0.78800046
203	0x3f310069	0.6914125
204	0xbf6e283e	-0.93030155
205	0xbefa5f25	-0.48900715
206	0xbf686542	-0.9077951
207	0x3d7e5150	0.062089264
208	0xbeceeb97	-0.40414116
209	0xbf0d5abb	-0.5521657
210	0xbf904a33	-1.1272644
211	0xbc3932b5	-0.011303593
212	0xbef90874	-0.48639262
213	0xb9dfe136	-0.0004270167
214	0xbeaaeef5	-0.33385435
215	0x3f10a9bc	0.56508994
216	0x3e551921	0.20810367
217	0x3d2d31b6	0.042283736
218	0xbe9504bb	-0.29105172
219	0xbdccaacb	-0.09993514
220	0xbc4f00a4	-0.01263443
221	0x3f424f36	0.75902116
222	0x3f13bc05	0.5770877
223	0x3e11e51c	0.14247555
224	0xbe69aba9	-0.2281939
225	0x3e4c55be	0.19954583
226	0xbe957558	-0.2919109
227	0xbd3c191c	-0.045922384
228	0x3d7ef7e7	0.062248137
229	0xbe7d663e	-0.24746034
230	0x3da77302	0.08176233
231	0x3f56aa04	0.83853173
232	0x3f33863c	0.701267
233	0x3d33eee5	0.043929
234	0xbe207c37	-0.15672384
235	0x3dd7dbdc	0.10539982
236	0x3f5439ea	0.8290087
237	0x3fbecf26	1.4906967
238	0x3e3dd22c	0.18537205
239	0x3e201ea9	0.15636696
240	0xbf1adb19	-0.60490566
241	0x3d0c1c2f	0.034206565
242	0x3f32bc7f	0.6981887
243	0x3d872a90	0.06599915
244	0xbe4b8ead	-0.19878645
245	0x3ee9a7ac	0.45635736
246	0x3f39788e	0.72449577
247	0xbec67c08	-0.38766503
248	0xbe83ec36	-0.25766152
249	0x3f37e8c1	0.7183953
250	0xbef3e9cf	-0.4763932
251	0x3dfad74d	0.122480966
252	0x3f103be5	0.5634139
253	0xbe0f829b	-0.14014666
254	0x3ed8af7c	0.42321384
255	0x3d728bb4	0.059215263

b2 f4 [84]
0	0x3ed601e2	0.4179831
1	0x3e99d8a3	0.30048093
2	0xbeb4fd14	-0.35349333
3	0xbed350fe	-0.4127273
4	0xbea67b10	-0.32515764
5	0xbed689d4	-0.4190203
6	0x3e1e5a4f	0.15464137
7	0xbf4efe1c	-0.8085649
8	0x3e67ef32	0.2264984
9	0x3eb48cee	0.3526377
10	0xbea279bb	-0.31733498
11	0xbce4f89a	-0.027950574
12	0x3f45c533	0.7725403
13	0xbeb036c5	-0.34416786
14	0x3f27a656	0.65488183
15	0xbe0f1c01	-0.13975526
16	0xbe1d5506	-0.15364465
17	0x3edb31bc	0.42811382
18	0xbeaa8c00	-0.33309937
19	0x3c802f5a	0.015647579
20	0x3d9b3ed8	0.07580346
21	0x3f6daf24	0.9284537
22	0x3e7f36ea	0.24923292
23	0xbe847f4c	-0.2587837
24	0xbca60d7f	-0.020270107
25	0xbb34154b	-0.0027478512
26	0x3e9a72f7	0.30165836
27	0x3d989277	0.07449811
28	0xbc943634	-0.018092252
29	0x3f1154fe	0.5677031
30	0x3da45c42	0.08025409
31	0xbdc69069	-0.09695513
32	0x3e1535b6	0.1457127
33	0x3f28fe91	0.6601344
34	0xbe7ab6c9	-0.2448379
35	0x3f0acd91	0.5421992
36	0xbf91194b	-1.1335844
37	0xbebb094c	-0.3653053
38	0x3f29557d	0.6614607
39	0x3ea798b1	0.32733682
40	0xbe88c064	-0.26709282
41	0xbf0653df	-0.5247173
42	0x3e7bac3b	0.2457742
43	0xbf5848cc	-0.8448608
44	0x3e2ae9bf	0.1669073
45	0x3ec10fd1	0.3770738
46	0xbd007c64	-0.03136863
47	0xbd2f6490	-0.042820513
48	0xbbc65f9b	-0.0060538775
49	0x3c642e9b	0.013927127
50	0xbedd3e56	-0.4321162
51	0x3e6a41a7	0.22876607
52	0xbe7b8389	-0.24561895
53	0x3ed62de6	0.41831893
54	0xbee410ab	-0.44543967
55	0xbde9ad2a	-0.114099815
56	0xbf1094e4	-0.5647719
57	0xbdaf0a2b	-0.08546861
58	0xbcbb98ee	-0.022900071
59	0x3eb545dc	0.3540486
60	0x3e79e39a	0.2440323
61	0x3e92928b	0.28627428
62	0xbd0578b4	-0.032585815
63	0x3d3e06a2	0.046393044
64	0xbe4bd189	-0.1990415
65	0x3e12b20c	0.14325732
66	0xbeb0c363	-0.34524068
67	0xbeea6af0	-0.45784712
68	0xbf007388	-0.50176287
69	0xbe080f2d	-0.13287039
70	0x3ebb29cb	0.36555323
71	0x3afe9c26	0.0019425198
72	0xbd84e3cf	-0.064887635
73	0x3d2d0ad3	0.04224665
74	0xbe6314cc	-0.22175902
75	0xbe406822	-0.18789724
76	0x3e6ede01	0.23326875
77	0x3e3e24d3	0.18568735
78	0x3ea15943	0.31513414
79	0x3e4662a6	0.19373569
80	0x3e197fff	0.14990233
81	0xbedd8f62	-0.43273455
82	0xbdc7be24	-0.09753063
83	0x3ebb3e4a	0.3657096

w3 f4 [84, 84]
0	0xbf8f9d15	-1.1219813
1	0xbd8a4c7c	-0.067528695
2	0xbaa3fb92	-0.0012510887
3	0x3e0949f1	0.13407113
4	0x3d29b417	0.041431513
5	0xbe2e8aee	-0.17045185
6	0xbdb6a672	-0.08918466
7	0xbd999eff	-0.07501029
8	0xbe95ae00	-0.29234314
9	0x3ee576a3	0.44817075
10	0xbe6d46ac	-0.2317149
11	0xbe639fab	-0.22228877
12	0x3db3ca69	0.08778841
13	0xbe319711	-0.17342784
14	0xbf8e5297	-1.1118954
15	0x3f756ee6	0.9587234
16	0x3eb4b858	0.35296893
17	0xbf1df3f8	-0.6170039
18	0xbf3fcd5c	-0.7492273
19	0xbe0e9baa	-0.13926569
20	0xbed349a8	-0.41267133
21	0xbcf0ef17	-0.029410882
22	0x3d8c1bae	0.06841217
23	0xbeec9c5c	-0.46213043
24	0x3e690976	0.22757515
25	0xbea9545e	-0.3307218
26	0x3f620aed	0.8829792
27	0x3ee1e3e8	0.4411919
28	0xbf20108a	-0.62525237
29	0xbf1bc027	-0.60840076
30	0x3d04f4f8	0.032460183
31	0x3d9a0fb7	0.075225286
32	0x3e655ce5	0.22398718
33	0xbef1cbb7	-0.47225735
34	0x3f1dfee1	0.6171704
35	0x3e8b0dd4	0.27158988
36	0xbdc7da84	-0.097584754
37	0x3e926ad5	0.2859713
38	0xbce8c916	-0.028416198
39	0xbc15572f	-0.0091150245
40	0xbe541561	-0.2071128
41	0x3e89cc2b	0.2691358
42	0x3e8c5a27	0.2741253
43	0x3e9885f0	0.29789686
44	0xbe8e11e6	-0.2774803
45	0xbf664ef3	-0.89964217
46	0xbe9b76e0	-0.30364132
47	0x3d1705f7	0.036870923
48	0xbe96ba05	-0.29438797
49	0xbef02b2f	-0.46907946
50	0xbd8aea5a	-0.0678298
51	0xbea4d4b6	-0.32193536
52	0xbe25ebc6	-0.16203222
53	0x3e374066	0.1789566
54	0xbeca8c46	-0.39560145
55	0xbef00bad	-0.46883908
56	0xbed45828	-0.41473508
57	0x3eaff547	0.3436682
58	0xbdf1a1fa	-0.11798473
59	0xbefeb214	-0.49745238
60	0xbeaa1a40	-0.33223152
61	0xbc8ec808	-0.017429367
62	0xbe4b164c	-0.19832724
63	0xbeee491d	-0.46540156
64	0x3eaac676	0.3335454
65	0x3d8088ea	0.06276114
66	0x3f4acd38	0.7921939
67	0x3f29477e	0.66124713
68	0x3e34fab2	0.17673758
69	0x3f9124bd	1.1339337
70	0x3bc693a2	0.0060600797
71	0x3f52c2d3	0.8232853
72	0xbf2fed84	-0.68721795
73	0x3eda8145	0.4267675
74	0x3d6792be	0.05653643
75	0xbf19045f	-0.59772295
76	0xbf30fbea	-0.6913439
77	0x3f3c37c8	0.73522615
78	0xbe52140c	-0.2051546
79	0x3e711c6a	0.23545995
80	0xbe52db32	-0.20591429
81	0xbe54e9d9	-0.20792331
82	0x3f0473ad	0.5173901
83	0xbf17fb55	-0.5936788
84	0xbd9e544c	-0.07730922
85	0xbf0c5e9b	-0.54831856
86	0x3f0dd59f	0.55404085
87	0x3dc64d3a	0.096826985
88	0x3f07f2d5	0.5310491
89	0x3eee96f0	0.4659953
90	0x3e978c43	0.295992
91	0x3f28e0e9	0.65968186
92	0xbe52cfe8	-0.20587122
93	0xbef9b383	-0.4876977
94	0x3f46a32c	0.7759273
95	0xbf58b39a	-0.8464905
96	0xbf26c1ac	-0.6513927
97	0xbf631142	-0.8869821
98	0x3d998aa9	0.074971505
99	0x3e8425df	0.25810143
100	0xbe74ca78	-0.2390536
101	0x3db1ae13	0.0867578
102	0xbd99821c	-0.074955195
103	0xbde4008d	-0.111329176
104	0x3eab1a37	0.33418438
105	0x3e7a6e95	0.24456246
106	0x3eebd0bc	0.4605769
107	0xbe8f9ba3	-0.2804843
108	0x3ecdebf6	0.40219086
109	0xbe80509e	-0.25061506
110	0x3e1422c4	0.14466387
111	0xbf358286	-0.7090229
112	0x3f0432cf	0.5164003
113	0xbec46ffa	-0.3836668
114	0x3d9600ff	0.07324409
115	0x3dd5fd9e	0.10448764
116	0x3f10f939	0.56630284
117	0xbeb29ad5	-0.34883752
118	0x3fa7eb62	1.3118708
119	0x3e8d285a	0.27569848
120	0xbf1a4495	-0.602609
121	0xbef7951d	-0.48355952
122	0xbf559fd0	-0.8344698
123	0x3e1ee5b6	0.15517315
124	0xbef6e9b7	-0.48225185
125	0x3e883200	0.26600647
126	0xbe734987	-0.23758517
127	0x3e7eb702	0.248745
128	0x3e9debfd	0.30844107
129	0x3ea511e7	0.3224022
130	0x3e92b85b	0.28656277
131	0xbf5d7854	-0.8651173
132	0x3f2f561b	0.6849076
133	0x3ee76476	0.45193833
134	0x3def2ee0	0.116788626
135	0xbf876528	-1.0577745
136	0xbeeb029d	-0.4590043
137	0xbf15c227	-0.5849938
138	0x3ed9ba0c	0.42524755
139	0x3dcbd37c	0.09952447
140	0xbf09f134	-0.5388367
141	0x3c02abcc	0.00797553
142	0xbe884f37	-0.26622936
143	0xbeb5b862	-0.35492235
144	0x3e9114ea	0.2833627
145	0x3e37f610	0.17964959
146	0x3f81506f	1.0102671
147	0xbf3e9d43	-0.7445871
148	0x3f37ae0e	0.7174996
149	0x3e1e3fc1	0.15454008
150	0x3f179120	0.5920582
151	0x3e900fa2	0.28136927
152	0xbefb8189	-0.49122265
153	0xbeb3b741	-0.3510075
154	0xbd31ee87	-0.043440368
155	0xbedfbb18	-0.4369743
156	0xbcda7b48	-0.026670113
157	0xbd9ba21f	-0.075992815
158	0xbd55fc58	-0.052242607
159	0xbe95cbf9	-0.2925718
160	0xbe83eb44	-0.2576543
161	0xbeb8c77a	-0.3608969
162	0x3ea9b9e1	0.33149627
163	0xbef738cf	-0.4828553
164	0x3f3db22c	0.74099994
165	0x3e55ba2c	0.208718
166	0x3eb232b0	0.34804296
167	0x3df87261	0.12131191
168	0xbf0d254c	-0.55135036
169	0xbf10145f	-0.56281084
170	0x3e9c6743	0.30547532
171	0x3f035229	0.5129724
172	0x3ea94912	0.3306356
173	0xbe8cc8ba	-0.27496892
174	0x3e65e39e	0.2245011
175	0xbf3e2b98	-0.7428527
176	0xbecb3f2f	-0.39696643
177	0x3e655c96	0.223986
178	0x3cd86f53	0.026420271
179	0x3ed052a4	0.4068805
180	0x3c9e837b	0.019349804
181	0xbf190b8a	-0.5978323
182	0xbfe1770a	-1.7614453
183	0x3d28955b	0.04115806
184	0x3f22e3d1	0.6362887
185	0x3ec3c9b0	0.38239813
186	0xbf44f42a	-0.76935065
187	0x3eb11223	0.3458415
188	0xbed1146c	-0.40835893
189	0x3e8a6451	0.2702966
190	0x3efe0e28	0.49620175
191	0x3f17698f	0.59145445
192	0x3f15c9e1	0.5851117
193	0x3f86987f	1.0515288
194	0x3ec91342	0.39272505
195	0x3df89933	0.121385954
196	0xbe9143d0	-0.2837205
197	0x3e027262	0.12738946
198	0x3f1601e7	0.5859665
199	0x3f0e7744	0.55650735
200	0xbe6c1621	-0.23055317
201	0x3f6b4a8b	0.9191062
202	0xbf276320	-0.6538563
203	0xbe33d6e1	-0.17562439
204	0x3ed66281	0.41872028
205	0x3e8e95a5	0.27848545
206	0x3e679d5c	0.22618622
207	0xbec5879b	-0.3858002
208	0xbf0dd63e	-0.5540503
209	0xbe1bcad9	-0.15214099
210	0xbe9a1c3a	-0.3009966
211	0xbf1c5b6a	-0.61076987
212	0x3eda1df9	0.42600992
213	0xbf810022	-1.0078166
214	0x3efcf237	0.49403545
215	0x3f131d5c	0.57466674
216	0xbf55f2ec	-0.83573794
217	0x3f0fde06	0.56198156
218	0x3e8a6a24	0.27034104
219	0x3d081874	0.033226445
220	0xbe0f7802	-0.14010623
221	0x3b50a92d	0.0031839118
222	0xbf2ce242	-0.6753274
223	0x3f1a8174	0.6035378
224	0x3e9c85dc	0.30570877
225	0x3f6604dd	0.8985117
226	0xbc29c411	-0.010361687
227	0xbd4e8892	-0.050423212
228	0x3f46fe0a	0.7773138
229	0xbf3c9803	-0.7366945
230	0x3d9ca3de	0.07648443
231	0x3f220241	0.6328469
232	0x3e94e7eb	0.2908319
233	0xbebe37cd	-0.37151948
234	0xbf09c397	-0.5381407
235	0x3f1f5b48	0.6224866
236	0xbf5deeaa	-0.866923
237	0xbdea39c2	-0.11436798
238	0x3eb33efe	0.35008997
239	0xbebf6ecb	-0.37389216
240	0x3e2627c8	0.16226113
241	0xbe93bdf3	-0.28855857
242	0x3e9afe11	0.30271962
243	0xbdf447c9	-0.119277544
244	0x3f04af20	0.5182972
245	0x3e6df780	0.23238945
246	0x3ed85e52	0.4225946
247	0x3d1d03d4	0.03833373
248	0xbe42c940	-0.19022083
249	0x3e104d92	0.1409209
250	0xbf264477	-0.6494822
251	0xbe479bbb	-0.19493
252	0xbf4b2f74	-0.7936928
253	0x3e2ffa37	0.17185293
254	0x3f37edaa	0.7184702
255	0x3e1948ae	0.14969131

b3 f4 [84]
0	0x3ee641ff	0.44972226
1	0xbf54e83f	-0.8316688
2	0x3eaf4502	0.34232336
3	0xbf7dda8a	-0.9916159
4	0xbf3a1fd8	-0.7270484
5	0x3e3748da	0.17898884
6	0xbcec531d	-0.028848225
7	0x3d9378c1	0.07200766
8	0xbf26b75b	-0.6512353
9	0xbf486ee2	-0.78294194
10	0x3ef784b5	0.48343435
11	0xbec393a9	-0.38198593
12	0xbf51017e	-0.816429
13	0x3eeca113	0.4621664
14	0x3f29f19f	0.6638431
15	0x3e86b847	0.26312467
16	0x3e034a20	0.12821245
17	0x3d3ba7c7	0.0458143
18	0xbf08a042	-0.53369534
19	0xbebb2392	-0.36550575
20	0xbf10baa4	-0.5653479
21	0x3e4f391c	0.20236629
22	0xbf1da79b	-0.6158387
23	0xbde4bd93	-0.11168971
24	0x3ee66732	0.45000607
25	0x3e4fd5ce	0.20296404
26	0xbe3ad5b5	-0.18245585
27	0xbe383999	-0.17990722
28	0xbeed5407	-0.4635317
29	0xbeb0bb70	-0.34518003
30	0xbe9f0e93	-0.31065807
31	0x3dbe4389	0.09290225
32	0xbe32f230	-0.174752
33	0x3e947aff	0.2900009
34	0x3e9bc215	0.3042151
35	0xbed007b6	-0.40630883
36	0x3f0d1b9d	0.5512026
37	0xbe8c0a8b	-0.27351794
38	0x3ef67d60	0.4814253
39	0xbf90ce21	-1.1312906
40	0xbe86543d	-0.26236144
41	0xbea53daf	-0.32273623
42	0xbd995ca5	-0.07488374
43	0x3e4198fe	0.18906018
44	0x3e3df286	0.18549547
45	0x3e66700c	0.2250368
46	0x3e5ffd0d	0.21873875
47	0xbc9d98c1	-0.019237878
48	0x3f3c53c7	0.73565334
49	0x3efa65b8	0.4890573
50	0x3f102d8d	0.56319505
51	0xbe93d29f	-0.2887163
52	0x3f37f5ec	0.7185962
53	0xbf259779	-0.64684254
54	0x3c722578	0.014779441
55	0xbe6457e1	-0.22299148
56	0xbe8966d8	-0.26836276
57	0x3ecf6e87	0.40514013
58	0x3e8e2ae8	0.2776711
59	0xbea91f96	-0.3303191
60	0xbeae4d8b	-0.34043536
61	0x3de774aa	0.11301549
62	0x3e8c2f3d	0.2737979
63	0xbf1c3257	-0.6101431
64	0x3ed628e5	0.41828075
65	0xbf082bfb	-0.5319211
66	0xbf06e427	-0.5269188
67	0xbf93e78d	-1.1555039
68	0xbf6b3e92	-0.9189235
69	0x3f6d6702	0.927353
70	0x3ebbbfc6	0.3666975
71	0xbf78a57e	-0.9712752
72	0xbe59de57	-0.21276222
73	0xbd3983bd	-0.04529165
74	0x3ed83b8d	0.42232934
75	0x3eb0fa46	0.34565943
76	0x3f2ad6c7	0.66733974
77	0xbe6bc468	-0.23024142
78	0xbecfca3f	-0.4058399
79	0x3de30956	0.11085765
80	0x3f3941c8	0.72366
81	0x3f16ce23	0.5890829
82	0xbd0fe92c	-0.03513448
83	0xbf31c35f	-0.6943874

w4 f4 [84, 42]
0	0xbebd2633	-0.36943206
1	0xbf783620	-0.9695759
2	0x3ee97a40	0.45601082
3	0x3f4706b7	0.7774462
4	0x3e8f35bc	0.27970684
5	0xbf837271	-1.02693
6	0x3f1a1bf1	0.60198885
7	0xbe3118b2	-0.17294577
8	0x3ef8730c	0.48525274
9	0x3f0ae85d	0.5426081
10	0xbe81ea79	-0.253742
11	0xbeda083a	-0.425844
12	0xbe0cc709	-0.13747801
13	0x3f393f85	0.7236255
14	0x3f36bf99	0.71386105
15	0xbf17aaef	-0.592452
16	0xbec8522a	-0.39125186
17	0xbf0c26df	-0.5474681
18	0xbe89bccd	-0.26901856
19	0x3dc03397	0.0938484
20	0x3e479e81	0.19494058
21	0x3e6f7468	0.23384249
22	0xbe291940	-0.16513538
23	0xbed5aff4	-0.41735804
24	0x3e729bf2	0.23692301
25	0x3e304c56	0.1721662
26	0x3e0863bc	0.13319296
27	0xbea81308	-0.3282702
28	0xbd2e657b	-0.042577248
29	0xbfa18d18	-1.2621183
30	0xbeeec68c	-0.46635854
31	0x3ef21957	0.47284958
32	0x3eec1a86	0.46113986
33	0xbeb0906f	-0.34485194
34	0xbf03feaf	-0.5156049
35	0xbec128b4	-0.37726367
36	0xbf0d721d	-0.5525225
37	0xbeec786b	-0.46185622
38	0xbdadab93	-0.08479991
39	0xbf8015cb	-1.0006651
40	0x3f0faf63	0.56126994
41	0x3e49268d	0.19643612
42	0xbcacaade	-0.02107757
43	0xbd81139c	-0.06302568
44	0xbd51efc4	-0.05125405
45	0x3ede2ef4	0.43395197
46	0xbdb74ff0	-0.08950794
47	0x3f1b4eb0	0.6066694
48	0xbe547f9a	-0.20751801
49	0xbf08679e	-0.5328311
50	0x3e382466	0.17982635
51	0xbc879529	-0.016550617
52	0x3f13be43	0.5771219
53	0x3f31f67a	0.6951672
54	0x3e8f4c61	0.2798796
55	0xbf20c2a9	-0.6279703
56	0x3f6240c4	0.88380075
57	0x3beaea5f	0.0071690525
58	0xbf8acc9c	-1.0843692
59	0xbf13a84a	-0.57678664
60	0x3f3442cb	0.7041442
61	0xbe8da396	-0.2766387
62	0x3b71e008	0.0036907215
63	0x3f1f7966	0.62294614
64	0x3edf38e3	0.4359809
65	0xbeda87cc	-0.4268173
66	0x3dc755ad	0.09733138
67	0xbee1838d	-0.44045678
68	0x3ee98fa5	0.45617405
69	0x3dc3b173	0.0955533
70	0xbeaac835	-0.3335587
71	0x3e9f44cd	0.31107178
72	0x3f08ee6f	0.5348882
73	0xbeae375c	-0.3402661
74	0xbe36a74b	-0.17837255
75	0xbe0fee5f	-0.14055775
76	0xbf4c5ad7	-0.7982611
77	0xbfb3a3f1	-1.4034406
78	0xbee6b2a6	-0.45058173
79	0xbc87e0fe	-0.016586777
80	0x3caf990d	0.021435285
81	0xbedc61c0	-0.43043327
82	0xbf5734e0	-0.84065056
83	0xbd9884ad	-0.07447181
84	0x3f92a783	1.145737
85	0x3ea49f41	0.3215275
86	0xbebe414f	-0.37159202
87	0xbdc0406a	-0.09387286
88	0x3e321605	0.17391212
89	0xbdbb70f9	-0.09152407
90	0xbf5d7982	-0.8651353
91	0x3ec750f7	0.3892896
92	0xbf483f99	-0.7822204
93	0xbf253db8	-0.645473
94	0xbf01a498	-0.50641775
95	0x3f72c129	0.9482599
96	0xbf5d8778	-0.86534834
97	0xbdd1e997	-0.10249632
98	0x3efd8c8d	0.49521294
99	0x3e7702f8	0.24122226
100	0x3eb3928e	0.3507275
101	0x3e5d197d	0.21591754
102	0x3e591290	0.21198487
103	0xbef772f2	-0.48329884
104	0xbdf08b6b	-0.11745342
105	0x3f25d1e6	0.64773405
106	0x3edaa2d2	0.42702347
107	0x3e514678	0.20437038
108	0x3e89c6c1	0.2690945
109	0xbeee02a8	-0.46486402
110	0x3f0650f0	0.5246725
111	0x3f5abcf3	0.85444564
112	0xbe5a7b78	-0.21336162
113	0xbdc7180b	-0.09721383
114	0xbd8cf280	-0.06882191
115	0x3f38d255	0.7219594
116	0xbf08263c	-0.5318334
117	0xbd591de3	-0.053007018
118	0xbf345d3d	-0.7045477
119	0x3e15f7bb	0.14645283
120	0xbf0c6119	-0.5483566
121	0x3e9266fd	0.285942
122	0xbe0ae697	-0.13564526
123	0x3ebdcc91	0.37070134
124	0xbeb69167	-0.35657808
125	0xbc9767c0	-0.018482089
126	0xbc84e3f3	-0.016221976
127	0xbf16ff2f	-0.5898313
128	0x3f0c71a3	0.54860896
129	0xbbcade7b	-0.0061910725
130	0xbeacd7bd	-0.33758345
131	0xbea0091a	-0.31256944
132	0xbed7bb6a	-0.42135173
133	0x3ed88902	0.4229203
134	0x3f2cf52e	0.67561615
135	0xbec22449	-0.37918308
136	0xbf0de14a	-0.5542189
137	0xbe1fa6ae	-0.15590927
138	0x3e9abec3	0.30223665
139	0xbfe08b1a	-1.754245
140	0x3f3c8e45	0.73654586
141	0xbd747bd7	-0.059688415
142	0x3edbbcd9	0.42917517
143	0x3f06c903	0.5265047
144	0xbd52b729	-0.051444206
145	0xbe06d12b	-0.13165729
146	0x3ef65a31	0.48115686
147	0x3e67fc60	0.22654867
148	0x3eac7faf	0.33691165
149	0x3f43ba2a	0.7645594
150	0x3f1403f8	0.57818556
151	0x3e59ff6b	0.2128884
152	0xbecb9182	-0.3975945
153	0xbd9c29d4	-0.076251656
154	0xbeb5c200	-0.35499573
155	0x3f28bdc5	0.65914565
156	0x3d231a6c	0.03982012
157	0x3e4164d1	0.18886115
158	0xbf0f8f11	-0.56077677
159	0xbe4d0a1e	-0.2002339
160	0xbe50ccb8	-0.20390594
161	0xbed95739	-0.42449358
162	0xbf2d44aa	-0.676829
163	0x3d2bc2b0	0.041933715
164	0xbe014bfe	-0.12626645
165	0x3f838cbf	1.0277327
166	0xbcd9c3ab	-0.02658256
167	0xbca01514	-0.0195413
168	0x3f815d86	1.0106666
169	0xbe356186	-0.17712983
170	0xbf38d4a3	-0.7219946
171	0x3ec02e58	0.37535357
172	0xbe14e160	-0.14539099
173	0xbdcf218b	-0.1011382
174	0x3ece9fe2	0.40356356
175	0xbeda5c87	-0.42648718
176	0xbcc426f9	-0.023944365
177	0x3d961fa9	0.073302574
178	0x3f20077d	0.62511426
179	0xbd9c0f08	-0.076200545
180	0x3eaba80c	0.33526647
181	0xbef07ab2	-0.4696861
182	0xbf0cbf64	-0.5497954
183	0xbe4fe603	-0.20302586
184	0x3f253ccd	0.645459
185	0xbe69174d	-0.22762795
186	0xbf5b0d86	-0.8556751
187	0xbee77dd2	-0.4521318
188	0x3f971487	1.180314
189	0x3b15c911	0.002285544
190	0x3e91b596	0.28458852
191	0xbea5aef4	-0.3236004
192	0x3f2e2830	0.6803007
193	0x3fa4c256	1.2871807
194	0xbe0eecd8	-0.13957536
195	0x3e664829	0.22488464
196	0x3e739d9e	0.23790595
197	0x3f316966	0.6930145
198	0xbe97d659	-0.29655722
199	0xbe13680f	-0.14395164
200	0x3d541382	0.051776417
201	0x3f465c52	0.7748462
202	0xbe9bb7da	-0.30413705
203	0x3d8b27bc	0.06794688
204	0xbda0bd22	-0.07848574
205	0x3ed85ac1	0.4225674
206	0x3f522985	0.82094604
207	0xbf760e6c	-0.96115756
208	0xbf81a66c	-1.0128913
209	0xbd1e2dc3	-0.03861786
210	0xbe640595	-0.22267754
211	0xbf56391a	-0.8368088
212	0xbf1090f1	-0.56471163
213	0x3e65e3ea	0.22450224
214	0xbee28f30	-0.44249868
215	0x3f56a0a2	0.83838856
216	0x3e7ca7ce	0.24673387
217	0xbe701125	-0.2344404
218	0x3f3c8aaf	0.73649114
219	0x3f3634f4	0.7117455
220	0x3eddc14e	0.43311542
221	0x3f003867	0.50086063
222	0x3db401cd	0.08789406
223	0x3f6f05f6	0.9336847
224	0xbce637c8	-0.02810277
225	0xbf5d8db7	-0.86544365
226	0xbeaf1eab	-0.34203085
227	0xbefb9d90	-0.49143648
228	0xbf2f8863	-0.68567485
229	0xbf4b27e4	-0.79357743
230	0x3ee14ac8	0.44002366
231	0xbe763df7	-0.24047075
232	0x3e678fd5	0.22613461
233	0xbf0fedfa	-0.562225
234	0x3e6b7a77	0.22995935
235	0xbda5d2e4	-0.08096865
236	0xbec6b7e2	-0.38812166
237	0xbeed8319	-0.46389082
238	0xbdc6ebb2	-0.09712924
239	0xbf0b3c0a	-0.5438849
240	0xbef0a156	-0.4699809
241	0x3f61e5eb	0.8824145
242	0x3f57c6bb	0.84287614
243	0x3d5096c8	0.050925046
244	0xbf130b9c	-0.5743959
245	0x3f14d53e	0.5813788
246	0xbf13b5ef	-0.57699484
247	0x3ed808f1	0.42194322
248	0xbe73e1f6	-0.23816666
249	0xbec510ba	-0.38489324
250	0x3ea68250	0.32521296
251	0xbe9e074d	-0.30864945
252	0xbf384e06	-0.71994054
253	0xbe604672	-0.21901873
254	0xbe5a2406	-0.21302804
255	0xbe81e248	-0.2536795

b4 f4 [42]
0	0x3f4ebf64	0.8076079
1	0xbe10634a	-0.14100376
2	0xbeaa93a7	-0.33315775
3	0xbf29623d	-0.66165525
4	0x3eaa3a66	0.3324768
5	0x3ecd9008	0.4014895
6	0xbf7e20b1	-0.99268633
7	0xbf6bc6ea	-0.92100394
8	0xbede160a	-0.4337619
9	0xbeab0bea	-0.33407527
10	0x3f3684b5	0.71296245
11	0x3e1b9300	0.15192795
12	0xbf1ca44a	-0.61188185
13	0x3f3df032	0.74194634
14	0xbf0d1d36	-0.551227
15	0x3e0564a0	0.13026667
16	0x3e884bad	0.26620236
17	0xbdf6c6e8	-0.12049657
18	0xbf605ff0	-0.8764639
19	0x3eda10c6	0.42590922
20	0x3eda5c02	0.4264832
21	0x3d950f8e	0.072783574
22	0xbea6c315	-0.3257071
23	0xbdfe4cb7	-0.12416976
24	0x3e17b036	0.14813313
25	0xbeb7ad40	-0.35874367
26	0x3dd17704	0.102277786
27	0x3eec22cf	0.46120307
28	0x3fbc48ae	1.470968
29	0xbee31877	-0.44354603
30	0xbf4c3a5a	-0.7977654
31	0xbe53f4b0	-0.2069881
32	0x3e2b2f28	0.16717207
33	0x3df61ea4	0.12017563
34	0x3d160959	0.03663001
35	0x3d11ac55	0.03556474
36	0x3f94bf95	1.1620966
37	0xbf2f1258	-0.68387365
38	0x3ce831bf	0.028344033
39	0x3f35bd89	0.7099233
40	0x3e904922	0.28180796
41	0xbeed0035	-0.4628922

w5 f4 [42, 42]
0	0x3dbbd757	0.09171932
1	0xbe22d7d4	-0.15902644
2	0x3f2d2192	0.6762935
3	0x3ed7a0a5	0.4211475
4	0xbf7309fa	-0.949371
5	0xbd2968b3	-0.041359615
6	0x3f221431	0.6331206
7	0x3debd5ae	0.115153655
8	0xbda4f465	-0.08054427
9	0xbe31aa9e	-0.17350242
10	0xbf04b9d0	-0.5184603
11	0xbec5de35	-0.38646093
12	0xbc4ac416	-0.012375852
13	0xbf1a48db	-0.6026742
14	0xbda283b8	-0.079352796
15	0xbf79bd0a	-0.97554076
16	0x3e942aa1	0.28938773
17	0xbde47967	-0.11155968
18	0x3f067ee2	0.5253736
19	0xbe0a4504	-0.1350289
20	0x3db3aab3	0.08772793
21	0x3f8bd275	1.0923601
22	0x3ef5dab5	0.48018423
23	0x3f1dcba6	0.6163887
24	0x3f4e94f6	0.80696046
25	0x3ef8b73f	0.48577306
26	0xbca42072	-0.020035002
27	0x3ee33e5b	0.4438351
28	0x3f442928	0.766253
29	0xbe4d593b	-0.2005357
30	0x3e5a1ea2	0.21300748
31	0x3e63996f	0.22226499
32	0x3f18b183	0.5964586
33	0xbe965065	-0.2935821
34	0xbec05965	-0.37568203
35	0x3f4b3ee9	0.7939287
36	0x3e77588a	0.24154869
37	0xbd79c918	-0.060982794
38	0xbf525fd5	-0.8217748
39	0xbf07a6f9	-0.52989155
40	0x3ebcd6ef	0.3688273
41	0xbe088812	-0.13333157
42	0x3e4f0304	0.20215994
43	0x3eb5045e	0.35354894
44	0xbf0b6f6f	-0.5446691
45	0x3e3b6d8a	0.18303505
46	0x3d251f47	0.04031303
47	0xbec8477b	-0.39117035
48	0xbebd7b59	-0.3700817
49	0x3eee20e2	0.46509463
50	0x3e7e52ad	0.24836226
51	0xbee08829	-0.43853882
52	0xbf55d81c	-0.8353288
53	0x3ec5cdb2	0.38633496
54	0xbed45455	-0.4147059
55	0xbefad932	-0.48993832
56	0xbe9f360f	-0.3109593
57	0xbf129cde	-0.5727061
58	0xbf99c24e	-1.2012422
59	0x3f03e3ff	0.5151977
60	0x3ee4a50b	0.44657168
61	0xbe8ae14c	-0.27125013
62	0xbeffaae0	-0.49935055
63	0xbd20381d	-0.039116014
64	0x3e4dfa70	0.20115066
65	0x3f101c37	0.5629305
66	0x3cc7f40b	0.024408361
67	0x3f82b571	1.0211622
68	0x3ec243d1	0.37942365
69	0x3e834db1	0.2564521
70	0x3f1210ae	0.570567
71	0x3e4b9fb7	0.19885145
72	0xbeb7db00	-0.3590927
73	0x3ee8bd0f	0.4545674
74	0x3f08f38e	0.53496635
75	0xbe686cc5	-0.22697742
76	0xbf4c52dd	-0.7981394
77	0x3f2bda6e	0.6713017
78	0x3f34937f	0.7053756
79	0x3f553298	0.83280325
80	0xbe089852	-0.13339356
81	0xbf020da7	-0.5080208
82	0xbe89677d	-0.26836768
83	0xbea52db3	-0.32261428
84	0x3ce837c6	0.028346907
85	0x3dd666bf	0.10468816
86	0xbe6a71b4	-0.22894937
87	0x3ec6d03b	0.38830742
88	0x3f804f24	1.0024152
89	0xbe189ae2	-0.14902833
90	0xbe49335b	-0.19648497
91	0x3e2e7ed9	0.17040576
92	0xbe745d80	-0.23863792
93	0xbf124764	-0.57140183
94	0x3f081f12	0.5317241
95	0x3e31f6e0	0.17379332
96	0xbf73dade	-0.9525584
97	0x3ec04585	0.3755304
98	0xbedccfcf	-0.43127295
99	0x3e5c36c4	0.21505266
100	0x3f1e0a63	0.617346
101	0xbea5b05b	-0.3236111
102	0x3e9c5e0e	0.30540508
103	0x3d31f009	0.043441806
104	0x3f9674d1	1.17544
105	0xbf19391d	-0.5985277
106	0x3e4c5ef8	0.19958103
107	0xbd6aed93	-0.057355475
108	0xbd30bc15	-0.04314812
109	0x3d9c833d	0.07642219
110	0xbd10e6c3	-0.03537632
111	0xbf3db449	-0.7410322
112	0xbe9eaddd	-0.30992022
113	0x3e4590f7	0.19293581
114	0xbde9dc2f	-0.1141895
115	0x3f828ab4	1.0198579
116	0xbe604fc5	-0.2190543
117	0xbae00ee1	-0.0017094278
118	0xbf225210	-0.6340647
119	0x3ee4f729	0.44719818
120	0xbe3acd28	-0.18242323
121	0xbe1f6294	-0.15564948
122	0x3e3c3a81	0.18381692
123	0xbf0d66db	-0.5523507
124	0xbfe5fe22	-1.796818
125	0xbe487a40	-0.19577885
126	0x3da16a59	0.07881612
127	0xbf607139	-0.87672764
128	0xbe437cd6	-0.1909059
129	0xbf875a90	-1.0574512
130	0x3f18709a	0.59546816
131	0x3eea75cc	0.45792997
132	0x3c5938ae	0.013258142
133	0xbf04d0d0	-0.5188112
134	0xbf51be7f	-0.819313
135	0xbe5c8bce	-0.21537706
136	0xbe6ccf67	-0.23125993
137	0xbe4a3935	-0.19748385
138	0xbf47e5f5	-0.7808526
139	0x3dd83457	0.10556858
140	0x3eb78143	0.35840806
141	0x3eaa030e	0.33205456
142	0xbed5b58f	-0.4174008
143	0xbf00e040	-0.5034218
144	0x3e156c81	0.14592172
145	0x3ea059e4	0.3131858
146	0xbf148943	-0.58021945
147	0x3f14db2c	0.5814693
148	0x3ef84fef	0.48498484
149	0x3f53b78e	0.8270196
150	0x3e0d8496	0.13820109
151	0x3f05d394	0.5227597
152	0x3d5f17d0	0.05446607
153	0x3cd48e15	0.025946656
154	0x3e13db88	0.14439213
155	0xbe9331bb	-0.2874888
156	0xbe882c2d	-0.26596203
157	0x3e841efc	0.2580489
158	0x3e98bd94	0.29832137
159	0xbeef773b	-0.46770653
160	0x3f8d9683	1.1061558
161	0x3da3d5cc	0.07999763
162	0xbe94d142	-0.290659
163	0x3d9c8dc5	0.07644228
164	0x3ecd77ee	0.40130562
165	0x3e1cf53d	0.15327926
166	0x3eba325c	0.36366546
167	0x3e11e462	0.14247277
168	0x3bff7599	0.007796001
169	0x3deec86d	0.11659322
170	0x3f842e4a	1.0326626
171	0x3f88a2d3	1.067469
172	0xbdb9deb9	-0.09075684
173	0x3e2bf39e	0.16792151
174	0x3ea7ef56	0.32799786
175	0x3ec32dc0	0.38120842
176	0xbedfb0c5	-0.43689552
177	0xbef8bffc	-0.48583972
178	0x3ee77556	0.45206708
179	0xbee576aa	-0.44817096
180	0xbf807a11	-1.0037252
181	0x3d337aa0	0.043818116
182	0xbce7d12a	-0.02829798
183	0x3e023e40	0.12719059
184	0xbda36320	-0.07977891
185	0xbd70c296	-0.05877932
186	0x3e553dec	0.20824403
187	0x3f85f0f3	1.0464157
188	0xbe134787	-0.14382754
189	0x3db5ea1f	0.08882546
190	0xbe5ade3d	-0.2137384
191	0x3f2a3704	0.664902
192	0xbe384d68	-0.17998278
193	0xbee3b166	-0.44471282
194	0x3f226e2c	0.6344936
195	0x3e0bcb20	0.13651705
196	0x3f0f3c12	0.55951035
197	0x3f131c2b	0.57464856
198	0xbe251edb	-0.16125052
199	0xbe40996d	-0.18808527
200	0x3f046bf4	0.51727223
201	0xbecaf49b	-0.39639744
202	0x3e35ecd3	0.17766123
203	0xbdd8c47b	-0.10584351
204	0xbf1e2192	-0.61769974
205	0x3f070fc8	0.52758455
206	0xbe76275b	-0.2403845
207	0x3d9ff660	0.07810664
208	0x3eace8a6	0.33771247
209	0xbf5ce776	-0.8629068
210	0x3e2da37c	0.16956896
211	0xbf0a34d8	-0.53986883
212	0x3f791691	0.9730006
213	0xbe21deb8	-0.15807617
214	0x3e500fb3	0.20318489
215	0x3ee243a8	0.44192243
216	0x3f1b7b98	0.60735464
217	0xbcb5d4f6	-0.022196274
218	0x3f0d5d11	0.55220133
219	0x3e7b6b08	0.24552548
220	0xbd76e30e	-0.06027513
221	0xbe935a38	-0.2877977
222	0xbe881da9	-0.2658513
223	0xbe39284d	-0.1808178
224	0x3ddab733	0.10679474
225	0x3ec8f5d9	0.39250067
226	0xbf561eaf	-0.8364057
227	0x3eb3039a	0.34963685
228	0x3e88e500	0.26737213
229	0x3d257795	0.040397245
230	0xbdf10865	-0.11769179
231	0x3e5fd598	0.21858823
232	0x3e8edcc2	0.279028
233	0xbf192ce9	-0.5983415
234	0xbf002054	-0.5004933
235	0x3f19229d	0.5981844
236	0x3f3cb751	0.7371722
237	0x3e5d3786	0.21603212
238	0x3e8e3452	0.27774292
239	0xbd386c04	-0.045024887
240	0xbf4b3d2f	-0.79390234
241	0xbe750143	-0.23926263
242	0x3ea3d161	0.3199568
243	0x3f1f51fe	0.62234485
244	0x3e49954e	0.19685861
245	0x3ec670d5	0.3875796
246	0xbf27ec15	-0.6559461
247	0xbf1dc032	-0.6162139
248	0x3dfdc488	0.12391001
249	0x3de680ab	0.1125501
250	0x3eb780c0	0.35840416
251	0xbf4dabf4	-0.80340505
252	0x3f0c71e8	0.5486131
253	0x3e952430	0.2912917
254	0x3c18b79f	0.009321122
255	0x3e0f73cd	0.14009018

b5 f4 [42]
0	0xbc7ec52b	-0.015549938
1	0xbe9fb694	-0.31193984
2	0xbca73e2b	-0.020415386
3	0xbec35f95	-0.3815886
4	0x3f029ec5	0.51023513
5	0x3dfc643e	0.12323807
6	0x3ee84913	0.4536825
7	0x3f68f065	0.9099181
8	0xbe2b7dc3	-0.16747193
9	0xbedabf47	-0.42724058
10	0xbcb64037	-0.022247417
11	0x3f6ae0e5	0.9174941
12	0x3f263621	0.64926344
13	0xbdd43472	-0.10361566
14	0x3e2996d1	0.16561438
15	0x3e8e0ca4	0.2774402
16	0xbe5b0e5d	-0.21392198
17	0xbfd448ca	-1.6584713
18	0xbdb35a18	-0.087574184
19	0x3ecc8a34	0.3994919
20	0x3e9466bf	0.2898464
21	0xbdfcceb5	-0.12344114
22	0x3d8a20a3	0.06744506
23	0xbef1ac9b	-0.47202
24	0x3e3104fe	0.1728706
25	0x3eaa6ca5	0.33286014
26	0xbe8d4cde	-0.27597708
27	0x3ee10c1d	0.43954554
28	0xbec9086f	-0.39264247
29	0x3dcd210f	0.10016071
30	0xbea8ad75	-0.32944837
31	0x3e90d9f1	0.28291276
32	0xbd2f752b	-0.04283635
33	0xbe74ffa9	-0.23925652
34	0xbd1a809f	-0.03772032
35	0x3e50d04d	0.2039196
36	0x3eae91cd	0.34095612
37	0x3f228eb4	0.63499
38	0xbf0614de	-0.5237559
39	0x3cd13da0	0.02554208
40	0x3ea689d5	0.32527032
41	0xbfc30d3b	-1.5238413

w6 f4 [42, 25]
0	0x3f656fae	0.89623535
1	0x3ef06e72	0.46959263
2	0xbf1991b2	-0.5998794
3	0xbcda93a2	-0.026681725
4	0x3f4c7b09	0.79875237
5	0xbd09333e	-0.033496134
6	0x3eb4356b	0.35197005
7	0xbe10c2cf	-0.14136814
8	0xbd042b1d	-0.03226768
9	0x3cdf085d	0.027225668
10	0x3c13149c	0.008977082
11	0xbecfa334	-0.40554202
12	0xbe58b447	-0.2116252
13	0x3f1697f2	0.588256
14	0x3eb94c6e	0.36191124
15	0x3f2c473d	0.672962
16	0xbec2b573	-0.3802906
17	0xbf0032a7	-0.5007729
18	0x3e551a43	0.208108
19	0xbf410bbc	-0.7540853
20	0xbe6ea619	-0.23305549
21	0x3e4eb26e	0.20185253
22	0xbf80bf46	-1.0058372
23	0xbed8fc49	-0.42379978
24	0xbe6469ed	-0.22306032
25	0x3efb6510	0.49100542
26	0x3ed5eb10	0.417809
27	0xbe97d31b	-0.29653248
28	0xbee44720	-0.44585514
29	0x3f104ae7	0.5636429
30	0x3e55a896	0.20865092
31	0xbc29e9fb	-0.010370727
32	0x3e993ddc	0.29930007
33	0xbf855200	-1.041565
34	0x3e818a47	0.2530081
35	0xbe58e3da	-0.21180668
36	0x3ea9eaa4	0.3318683
37	0xbe2fa80e	-0.17153952
38	0x3e3bd2a6	0.18342075
39	0xbeb69850	-0.3566308
40	0xbeda8f2b	-0.42687353
41	0xbf35f4b2	-0.710765
42	0x3d9caea2	0.07650496
43	0xbf1bd4ed	-0.60871774
44	0x3e8793d0	0.2647996
45	0xbf56f6a9	-0.83970124
46	0x3ee39dab	0.4445623
47	0x3ec8533a	0.39125997
48	0x3e8b1c7e	0.27170175
49	0xbf66ff88	-0.9023366
50	0xbe6c924f	-0.23102687
51	0xbec47d76	-0.3837697
52	0xbf15e325	-0.5854972
53	0xbedac1b8	-0.4272592
54	0xbe9d54be	-0.30728716
55	0x3f38fc93	0.722604
56	0xbf4bc1bd	-0.79592496
57	0x3dfe9288	0.12430292
58	0xbf5e4bd1	-0.86834437
59	0x3e0919dd	0.13388772
60	0x3f2a8a8c	0.66617656
61	0x3e8fd327	0.28090784
62	0x3f858f61	1.0434381
63	0xbf973c52	-1.1815283
64	0x3f1ac5fc	0.6045835
65	0xbed0836a	-0.4072526
66	0x3f2ee168	0.6831269
67	0x3f219efc	0.63133216
68	0xbe6fb5bb	-0.23409168
69	0xbed065ea	-0.40702754
70	0xbe3e1fd6	-0.18566832
71	0x3c978bcc	0.018499278
72	0xbdf2bafb	-0.1185207
73	0x3edcb6e5	0.43108287
74	0xbf1cf213	-0.61306876
75	0xbf2e2ec6	-0.6804012
76	0xbf5c49f2	-0.8605033
77	0xbecfb2b4	-0.40566027
78	0x3f3068d7	0.6890997
79	0xbeed1b98	-0.46310115
80	0x3e37c930	0.1794784
81	0xbdbf88c1	-0.093522556
82	0xbd815837	-0.06315654
83	0x3e4a5f57	0.19762932
84	0x3f4685da	0.7754799
85	0x3f4776f2	0.7791587
86	0x3d31b775	0.04338785
87	0x3dfc0c6a	0.12307055
88	0xbf504e20	-0.8136921
89	0xbee8997e	-0.45429605
90	0x3f109b90	0.5648737
91	0xbe601001	-0.21881105
92	0x3e71889c	0.23587269
93	0xbea1969b	-0.31560215
94	0xbe8c7aba	-0.27437383
95	0xbf6fc2e2	-0.9365674
96	0xbee781c0	-0.4521618
97	0x3f62d8e0	0.88612175
98	0xbdbf697a	-0.0934629
99	0xbf3ad9ad	-0.72988397
100	0x3de8e0c1	0.113709934
101	0x3e2f2a72	0.17106035
102	0x3e9fc1eb	0.31202635
103	0x3ef16ec1	0.4715481
104	0xbe5a4ed4	-0.21319133
105	0xbe35fc9e	-0.17772147
106	0x3f084eaf	0.5324506
107	0x3c2b578e	0.010457886
108	0xbe669921	-0.22519352
109	0xbf8e1479	-1.1099998
110	0x3f88ed8b	1.0697492
111	0x3dc90bcf	0.098167054
112	0x3cbdcd5f	0.023169218
113	0x3d99eeec	0.07516274
114	0x3ecdfad8	0.4023044
115	0xbe2798b3	-0.16366844
116	0x3d105681	0.035238747
117	0xbf723199	-0.9460693
118	0xbdb57f24	-0.08862141
119	0x3f2ef923	0.683489
120	0x3d4022b7	0.046908107
121	0xbf55a66f	-0.8345708
122	0x3dbde4d4	0.09272161
123	0x3f8ca408	1.0987558
124	0x3f7ad53a	0.9798161
125	0x3e8ffc67	0.28122255
126	0xbf14f96a	-0.58193076
127	0x3e4cd5ba	0.20003405
128	0x3e213df8	0.15746295
129	0x3de679ae	0.11253677
130	0x3dad8649	0.084728785
131	0x3ea6b2bc	0.32558239
132	0x3f590c38	0.8478427
133	0xbf11aa27	-0.56900257
134	0x3dbf1d1e	0.093317255
135	0xbda3b409	-0.07993323
136	0x3ce2d7b5	0.027690748
137	0xbf1c5acf	-0.6107606
138	0xbec5f5be	-0.3866405
139	0x3f1ce107	0.61280864
140	0x3da735b6	0.081645414
141	0xbe83bf69	-0.25731972
142	0x3e772dfc	0.24138635
143	0x3d16fa3c	0.036859736
144	0x3e1888b8	0.14895904
145	0xbd773705	-0.060355205
146	0x3f1392db	0.5764596
147	0xbe89f5a6	-0.26945227
148	0xbe8fef0b	-0.28112063
149	0xbe48d517	-0.19612537
150	0x3fa4319a	1.2827637
151	0x3db8df6b	0.090269886
152	0x3f9ea9af	1.2395533
153	0x3e5c685a	0.21524182
154	0xbefc9f98	-0.4934051
155	0xbef981e6	-0.48731917
156	0xbe4b3ce1	-0.19847442
157	0xbf247c70	-0.64252377
158	0xbf371dc6	-0.71529806
159	0x3faf16e7	1.3678864
160	0xbee6b1a3	-0.450574
161	0xbf584596	-0.8448118
162	0x3ee18ce6	0.4405281
163	0x3f1d88a0	0.615366
164	0xbf6541f2	-0.8955375
165	0x3e8a4dfb	0.2701262
166	0x3edd7618	0.4325416
167	0xbe7d41df	-0.24732159
168	0xbf0ffe0d	-0.56247026
169	0x3f0b5f74	0.54442525
170	0x3f5420b8	0.82862425
171	0xbe1acd6b	-0.15117423
172	0x3d36a524	0.044591084
173	0xbe075d08	-0.13219082
174	0x3e9b25dc	0.30302322
175	0xbf7c0675	-0.9844735
176	0x3ec870ee	0.3914866
177	0x3f867ec5	1.0507437
178	0xbf4c0ef7	-0.79710335
179	0xbe9b6d71	-0.30356935
180	0xbed4824c	-0.4150566
181	0x3f3e6850	0.7437792
182	0xbe844057	-0.25830337
183	0xbeb40f15	-0.35167757
184	0x3ed02d4d	0.40659562
185	0x3f475c98	0.7787566
186	0x3e3233bf	0.17402552
187	0xbf88a9b9	-1.0676795
188	0x3e9e8ecd	0.30968323
189	0xbd0881df	-0.03332698
190	0xbf8e4b98	-1.1116819
191	0x3ef4121d	0.4767007
192	0x3e3057a4	0.17220932
193	0x3f1eed91	0.6208125
194	0xbfc88a9a	-1.5667298
195	0xbca3f3d8	-0.020013735
196	0x3e874527	0.26419947
197	0xbe4f36b2	-0.20235708
198	0xbe501d73	-0.20323734
199	0x3f51a792	0.81896317
200	0x3f1db436	0.61603105
201	0x3eb4b901	0.35297397
202	0xbee260bd	-0.4421443
203	0xbe6312ea	-0.22175184
204	0xbe1212ad	-0.14264937
205	0x3e5a81c5	0.21338566
206	0xbea1a548	-0.31571412
207	0x3f37447a	0.7158886
208	0x3e2f1ff2	0.1710203
209	0xbf3a06fb	-0.726669
210	0x3d10c2fe	0.03534221
211	0x3df19323	0.11795642
212	0xbe6e6bf7	-0.23283373
213	0xbef6aab6	-0.48177117
214	0x3ed958a1	0.4245043
215	0x3e968764	0.2940017
216	0x3ecf0a70	0.4043765
217	0xbe08892b	-0.13333575
218	0x3fbdb574	1.4821
219	0x3c25f88f	0.010130062
220	0xbe962c8a	-0.29330856
221	0xbf1022d7	-0.5630316
222	0xbf87fd0b	-1.0624098
223	0x3dc913c3	0.098182224
224	0xbb07f5a4	-0.0020745778
225	0xbd56a3ce	-0.05240231
226	0xbe3d2e70	-0.18474746
227	0xbd4af030	-0.049545467
228	0x3edaf176	0.42762345
229	0xbef5de8d	-0.48021355
230	0x3eb3c007	0.35107443
231	0xbed76811	-0.42071584
232	0x3f3529b8	0.7076678
233	0xbe4bdf87	-0.19909488
234	0x3ede47a2	0.43414026
235	0x3f5cd25d	0.8625849
236	0x3ef3b941	0.47602275
237	0x3d615937	0.055016723
238	0x3f3ef585	0.74593383
239	0xbd238a1c	-0.039926633
240	0xbddd1a5f	-0.107960455
241	0xbb217c46	-0.0024640723
242	0xbef329e9	-0.47492912
243	0x3f62966e	0.8851079
244	0x3d038197	0.03210601
245	0x3f24a945	0.64320785
246	0x3f6f84c6	0.9356197
247	0x3eef7344	0.46767628
248	0x3e959b11	0.2921987
249	0xbf409373	-0.7522499
250	0x3e5bef1a	0.21477929
251	0x3e2525fc	0.16127771
252	0x3e222435	0.15834124
253	0x3f8877de	1.066158
254	0x3f3df18d	0.741967
255	0x3e9e27fe	0.30889887

b6 f4 [25]
0	0x3ed5f4d0	0.4178834
1	0xbf0b0be4	-0.5431502
2	0xbe512c76	-0.20427117
3	0xbd92ca66	-0.07167511
4	0xbea868c0	-0.32892418
5	0x3fb61a22	1.4226725
6	0xbcb86535	-0.022509197
7	0x3ef1754a	0.47159797
8	0x3dc37202	0.0954323
9	0x3cda4913	0.026646173
10	0x3e9aee87	0.30260107
11	0x3f4d47d8	0.8018775
12	0xbe8be900	-0.27326202
13	0x3e38c173	0.18042545
14	0xbe868a88	-0.26277566
15	0xbdc53459	-0.09629125
16	0xbe3ed146	-0.18634519
17	0x3e3261f0	0.17420173
18	0xbd5cd541	-0.053914312
19	0x3ec2146f	0.37906215
20	0xbe05d17a	-0.1306819
21	0x3d5dc10e	0.05413919
22	0xbea1c089	-0.31592205
23	0xbe84b7a7	-0.25921366
24	0xbeca25b1	-0.3948188
